cifar_net.pth (torch, 251015 bytes, 10 tensors)

conv1.weight f4 [6, 3, 5, 5]
000000 e5 ad c1 bd bd 7a 2b be 06 fb 2f be 3a 64 4a 3d
       -0.09456996 -0.1674604 -0.17185602 0.04941199
000010 a5 80 1d 3d 9b bd e3 bc bc e6 57 be 4a f3 cb be
       0.038452763 -0.027800372 -0.21084112 -0.39834052
000020 e6 ad 90 be 6b 78 80 be ce 92 58 3d d9 95 08 3e
       -0.28257674 -0.25091872 0.05287438 0.13338412
000030 f9 2a 50 bd 95 78 08 be dd 2c ec bd ad 14 13 3e
       -0.050822232 -0.13327248 -0.115319945 0.14363356
000040 30 4f 2b 3e 2f e2 72 3e 78 5e 9b 3d c9 15 2e 3d
       0.16729426 0.23719095 0.07586378 0.042501245
000050 31 75 95 3d 78 7c 99 3e 00 3e a8 3e 52 b9 8e 3e
       0.07297743 0.29977775 0.32859802 0.27875763
000060 49 c6 6e 3e 20 2d 91 3d c7 64 d0 bd 42 50 5e 3d
       0.23317827 0.07088685 -0.10175472 0.05427576
000070 1b 67 88 3d bd 5b bb 3e 0d e6 9a bd ea 5b 6f be
       0.06660291 0.36593428 -0.0756341 -0.23374906
000080 a9 52 b4 be 02 f6 12 be bd 5f 01 be 12 a9 5e 3d
       -0.35219315 -0.14351657 -0.12634178 0.054360457
000090 db a7 f6 38 61 6e 3c 3c ac ac 35 be 67 1f 8f bd
       0.000117614596 0.011500926 -0.1774165 -0.069884114
0000a0 87 e5 41 ba 05 72 28 3d 45 ae da 3d 7d 79 68 3d
       -0.0007396568 0.041124362 0.106777705 0.056756485
0000b0 a1 57 56 bd 82 f0 b3 3c 80 86 05 bd 3e 2c 83 3c
       -0.052329663 0.021965269 -0.032598972 0.016012307
0000c0 29 ad 72 3d cb 6b 7e bd f8 c6 ae 3c 7b eb 82 bd
       0.05924717 -0.062114518 0.02133511 -0.063925706
0000d0 00 80 90 3d ae bd 50 3d d9 23 bb 3e 69 8e 87 bd
       0.07055664 0.050962143 0.36550787 -0.066189595
0000e0 23 97 5d be e2 1c a3 be a3 f2 7d be 21 80 a4 3c
       -0.21639685 -0.31857973 -0.2479959 0.020080628
0000f0 f6 37 0a 3e 00 e4 14 3e 19 5d 3c 3d a4 13 e4 3a
       0.1349791 0.145401 0.045987222 0.0017400873
000100 fa 7e 45 be eb 06 d2 3d f0 c3 51 3e b4 43 9c 3e
       -0.19286719 0.10255226 0.204849 0.30520403
000110 ce 63 21 3e da 7a ab bb 70 c9 10 3d 80 f5 cf 3d
       0.15760729 -0.005233151 0.035348356 0.10154247
000120 ee 39 d0 3c b4 52 ed 3d 4c e1 3a bd 79 7f 38 3e
       0.025418248 0.1158804 -0.045625016 0.18017377
000130 2c fb a5 3e 12 5c 0d 3e 99 20 0e 3e c7 06 3d bc
       0.3241819 0.13804653 0.13879623 -0.01153726
000140 fb ad 90 3e 23 56 3f 3f 55 0a 32 3f de 2f 2f 3f
       0.28257737 0.7474081 0.69547015 0.68432415
000150 2e d6 cd 3e 25 68 be 3d 7e 95 1c bd df 86 7c 3d
       0.4020247 0.09297208 -0.038228504 0.06165206
000160 08 de 6d 3d ff 56 d3 bd aa 75 90 be 05 39 e6 be
       0.058073074 -0.103193276 -0.2821477 -0.44965377
000170 ca 17 d1 be f1 bb a8 be 5a 54 c7 be 3e b6 51 be
       -0.40838462 -0.32955888 -0.38931543 -0.20479676
000180 70 56 c8 bd c5 06 a0 be 8b 41 1b be 3b 07 8a be
       -0.09782112 -0.31255165 -0.15161721 -0.2695864
000190 27 ea 24 be 1e 71 7b be 64 3c 2f be 0f 07 df bd
       -0.16104947 -0.2455487 -0.17112881 -0.10890018
0001a0 ea 78 13 be 0a a5 32 bd f1 e0 85 3e a0 0e c3 3e
       -0.14401594 -0.043614425 0.2614818 0.38097095
0001b0 e7 96 e7 3e f8 4d 6a 3e aa 8a 71 be 8c c1 0e be
       0.45232317 0.22881305 -0.23588052 -0.1394102
0001c0 08 74 93 be f1 c4 71 be 88 c0 61 be fe d8 25 be
       -0.28799462 -0.23610283 -0.22046101 -0.16196057
0001d0 86 95 86 be 8c 9b 08 bf 95 3f c8 be ec 17 9e be
       -0.26285952 -0.53362346 -0.3911101 -0.30877626
0001e0 10 ba 61 bd ef cb d7 3d 89 d7 8a 3e 9b ff 14 3e
       -0.055109084 0.10536944 0.27117565 0.14550631
0001f0 16 52 e2 3d b9 b4 5e be b7 e0 3d be 68 a5 b9 be
       0.11050813 -0.21748628 -0.18542753 -0.36259007
000200 36 90 84 be a4 7b 47 be a4 3a f0 bc 79 32 8c 3e
       -0.25891274 -0.19480759 -0.029324837 0.27382258
000210 37 cc ab 3e 27 a3 d6 3e 89 9e 39 3e ad c4 e0 3d
       0.3355424 0.4192135 0.18126883 0.10975013
000220 6a 58 85 3c 3d de 0f be 82 bb 4a bd 8a 27 64 bd
       0.01627751 -0.14049621 -0.049495228 -0.05570177
000230 74 a7 a3 3d dd c6 97 bd dc 62 a4 be b0 ad 5a 3c
       0.079909235 -0.07410977 -0.32106674 0.013347074
000240 2a 8a 68 bd b1 e9 0b 3e 7b ba c1 3e 9b 16 99 3e
       -0.05677239 0.13663365 0.37837586 0.2990006
000250 79 aa b2 3e 35 03 5b 3e 05 58 9e 3d a8 d1 9b 3d
       0.34895685 0.21387942 0.07731632 0.07608348
000260 0d 9c b8 ba aa 6f ce bd 32 74 47 3e 86 44 8d be
       -0.0014084593 -0.10079892 0.19477919 -0.27591342
000270 2f e1 36 3e 0b 50 c1 3e d4 a0 bd be ef 66 b5 be
       0.17859338 0.3775638 -0.37036765 -0.35430095
000280 ab b8 86 be 31 7d 34 3e e0 6f 05 3f 20 8c 2d be
       -0.26312765 0.17625882 0.5212383 -0.16947985
000290 1e 53 fe be a1 68 72 be 0a 5c 81 3e ef 8b db 3e
       -0.49672788 -0.23672725 0.25265533 0.42880198
0002a0 65 47 49 bd c7 67 c1 be b3 46 06 3d a6 67 3d 3d
       -0.049140353 -0.37774488 0.032782268 0.046241425
0002b0 aa f3 aa bd f4 6a fe bc 6b 8d 02 bd 16 47 ef bc
       -0.083472565 -0.031056859 -0.031873148 -0.029208701
0002c0 8e ca a5 3d a9 50 6e 3c bb 5d ae bd 95 d9 34 3d
       0.08095275 0.014545598 -0.085139714 0.044152815
0002d0 e2 cc 13 bd e5 96 83 3e 7a 75 d7 3e 70 7c 29 be
       -0.036084063 0.2570106 0.42081815 -0.16551375
0002e0 c9 bd ae be 64 59 90 be 7a fe 55 3e 30 e5 2a 3f
       -0.3412917 -0.281932 0.20897856 0.6675596
0002f0 17 2a 51 be 9e 11 dd be b3 99 02 be 1c 79 1f 3e
       -0.20426212 -0.43177503 -0.12753944 0.15573543
000300 a1 3b c8 3e b8 d2 cf bc 71 79 96 be ce b0 2d 3e
       0.39107993 -0.025369033 -0.29389527 0.16961977
000310 ea 41 07 3d 6b 18 28 3c 8c 84 73 bb e3 c1 31 3d
       0.033021845 0.010259728 -0.0037157862 0.043397795
000320 d1 24 0f be e3 d3 46 bd c7 75 99 3d 8b ae 82 be
       -0.13978888 -0.048541915 0.07493167 -0.2552379
000330 94 52 84 3d a0 dc 0f be e8 2d cb 3c 97 2e 92 3e
       0.06461063 -0.14049006 0.024802163 0.2855117
000340 b1 87 a0 be fe 0e 59 be eb ab b2 be 7e 38 2b 3e
       -0.31353524 -0.21197125 -0.34896788 0.16720769
000350 13 5e 25 3f a8 19 33 be 05 d8 d1 be d7 e1 27 be
       0.6459667 -0.17490256 -0.40985122 -0.16394745
000360 8c 63 90 3e bf 50 b2 3e d9 14 32 bd 16 34 9e be
       0.28200948 0.3482723 -0.043476913 -0.30899113
000370 80 9a 29 3d aa 3f d3 3d 5b ee 81 3d 6b d1 b6 3c
       0.04140711 0.10314877 0.06344291 0.022316655
000380 25 1b f9 3d 7a 13 84 be 4e 3a 53 be 2a e6 21 be
       0.121633805 -0.2579611 -0.2062771 -0.15810457
000390 ac bb ad 3c 8e 62 54 3c 3d 8f 7e be d2 88 4e be
       0.021207653 0.01296295 -0.24859329 -0.2016938
0003a0 4c e2 99 bd bb 51 9a bc e3 be 97 bd 8d 42 1d be
       -0.07513866 -0.0188378 -0.074094556 -0.15357418
0003b0 cc 8e 1e be dc 79 b3 ba 47 61 05 be 5c 14 10 bd
       -0.1548416 -0.0013692933 -0.1302539 -0.035175666
0003c0 5a 42 18 be 1e 34 2c bd 40 ac 82 bc 62 02 eb bd
       -0.14869061 -0.04204189 -0.015951276 -0.11475064
0003d0 6b 60 3f be 43 0b 84 be 5d 1b c3 bd 12 8c 55 be
       -0.18689124 -0.25789842 -0.095267035 -0.20854214
0003e0 5c 0f ad bc 77 c1 31 3d 7b 5d 13 bd 37 09 fc 3d
       -0.021125488 0.043397393 -0.03597782 0.12306445
0003f0 96 03 00 3e 4d e6 af bd e0 96 21 bc 05 dd ec bd
       0.12501368 -0.08588848 -0.009862632 -0.11565594

conv1.bias f4 [6]
000000 5d 00 77 be 92 ac f3 be b5 0b 3d be 06 30 dc 3e
       -0.24121232 -0.47592598 -0.18461497 0.4300539
000010 f5 7e 42 be 0d 6e cf be
       -0.18993743 -0.4051365

conv2.weight f4 [16, 6, 5, 5]
000000 b7 cc 11 be eb b9 06 be dd 17 56 be 93 cf 44 be
       -0.14238249 -0.1315686 -0.2090754 -0.19219808
000010 28 a0 01 be d1 0f 89 3d bb b4 16 3e 55 d3 3d 3e
       -0.12658751 0.0669247 0.1471738 0.18537648
000020 46 dc d8 3d b4 d1 bc 3d 63 be 36 3d 80 b9 89 3c
       0.10588889 0.09219685 0.04461516 0.016812086
000030 83 15 bb 3d cf d6 6d bd d2 9b 1f bd e2 79 da bd
       0.091349624 -0.058066186 -0.03896696 -0.106677786
000040 74 9f d1 bd 2b 67 c5 bc 7f 77 3c bd ee 68 f4 bd
       -0.102354914 -0.024097046 -0.046012398 -0.11934076
000050 f1 03 6d 3d 1c 7a e9 3c 8a e2 97 3d 30 4d f8 3b
       0.057865087 0.02850061 0.07416256 0.007577561
000060 be f5 76 bd ad b0 75 3e fd 06 5e 3e c6 08 1a 3d
       -0.06029295 0.23993178 0.21682353 0.037606023
000070 40 ab 8a 3d bb 2d 8f 3d b1 26 c5 3d 5c f2 31 3d
       0.067709446 0.06991144 0.096265204 0.043444023
000080 c0 72 1a bd cf 9d 13 be d6 01 aa bd 25 c5 82 3e
       -0.03770709 -0.14415668 -0.083011314 0.25541034
000090 f7 59 b3 3e 96 4d 9f 3e 01 26 7e 3d 4e 30 0b 3d
       0.35029575 0.3111388 0.062047962 0.033981614
0000a0 35 50 cb bd 71 c7 63 bc d1 0b 53 bd 1b 1f 3e be
       -0.09927408 -0.013902531 -0.05152494 -0.18566553
0000b0 f6 fd 74 be 87 df 4c 3c ad 37 24 39 55 19 95 bc
       -0.23925003 0.012504465 0.00015661 -0.018200556
0000c0 f9 59 ad bd 1b c1 83 bd c1 b8 4d bd 3f 4e c9 bd
       -0.084644265 -0.06433316 -0.050225023 -0.098293774
0000d0 0b 28 78 bd 88 d0 a7 bc af 48 f5 3c 67 c1 ab bd
       -0.060585063 -0.020485178 0.029941885 -0.08386498
0000e0 f5 14 e5 bd 87 3e fa bb a3 ca 1e 3e 31 42 50 3d
       -0.11185638 -0.0076368484 0.15506987 0.050844375
0000f0 f9 5c cc bb 6a 1d 5a bd 42 d2 d6 bc 26 13 21 3e
       -0.006236669 -0.053250708 -0.026223306 0.15729961
000100 61 73 93 bc bb e6 94 3c 9a 29 14 bd 6f ff 95 3c
       -0.017999353 0.018176427 -0.036172487 0.018310277
000110 4e dd 86 3e 21 d3 1b bc 99 82 16 3d 8b 47 3f be
       0.26340717 -0.009510786 0.03674564 -0.18679635
000120 16 23 62 bd 11 be 2b 3e 25 2f cf bd 5e 47 30 3e
       -0.05520924 0.16771723 -0.10116414 0.17214724
000130 d4 c9 0a 3e 31 b1 cf 3c 47 88 09 3d c4 04 18 3d
       0.13553554 0.025353046 0.03357723 0.03711392
000140 16 6c 4d 3d f1 8b 08 3e a7 95 a3 3d 7b b5 a6 3d
       0.050151907 0.13334633 0.07987528 0.081400834
000150 e7 e5 4b bd 3f f7 9a bd 16 2b 74 bd f9 cb e4 bd
       -0.0497798 -0.0756669 -0.059611402 -0.11171717
000160 f1 db f3 bc df f8 f6 3b 35 14 e9 bd 0b 08 5c 3c
       -0.029767962 0.007536992 -0.11380807 0.013429652
000170 e1 79 44 bd b2 93 96 3b 3b 53 68 3d 99 74 0e be
       -0.047967795 0.0045952434 0.05672 -0.13911666
000180 55 9a 06 be d5 35 ef bd 5c d0 8e bd 8d 8c 41 bd
       -0.1314481 -0.116801895 -0.06973335 -0.04725318
000190 0e 4c d5 ba dd f2 62 bd ba 78 26 be f2 75 01 bd
       -0.0016273276 -0.055407394 -0.16256991 -0.031606622
0001a0 5f 71 41 3e c1 a6 f2 3d 97 49 8e bd 4c c9 30 be
       0.18890904 0.11848212 -0.0694763 -0.17264289
0001b0 87 c6 23 bd 46 8a 3e 3e 69 f5 1e 3d 56 8a cd bd
       -0.039984252 0.18607435 0.03880826 -0.10036151
0001c0 d9 b7 71 bd 50 54 d0 bd 27 1d 44 3e 54 3e 01 3d
       -0.05901322 -0.10172331 0.19151746 0.03155358
0001d0 53 ed e6 bc aa 33 29 be c2 03 af bd 23 e0 13 3e
       -0.028189337 -0.16523615 -0.085456386 0.1444097
0001e0 6f fa ea bd 5b ed 42 bd 14 5a 47 be 3f 9c 23 be
       -0.11473548 -0.04758964 -0.19467956 -0.15977572
0001f0 bd a2 f2 3d 6d 59 bb bd 0c dc 55 bc e6 9c 48 bd
       0.11847446 -0.09147916 -0.013052952 -0.048977755
000200 cf 88 23 bd 04 c0 e4 bd e3 01 b0 3d b2 c5 cd 3d
       -0.039925393 -0.111694366 0.0859411 0.10047473
000210 65 82 6b 3d b0 46 19 3d 8f 23 08 3e 0c f2 ac 3c
       0.0574974 0.03742093 0.13294815 0.02111151
000220 bd fb aa 3d 22 87 ee 3c 43 f9 86 bd 21 69 a4 3c
       0.083487965 0.02911717 -0.06590512 0.02006966
000230 47 ac c5 bb 23 f9 8a 3d 27 ce 79 3d e1 0a ad bd
       -0.0060325 0.067858 0.060987618 -0.084493406
000240 4d c2 45 bd 8a a0 4d bb 63 36 8b bd cb 76 98 bd
       -0.048281003 -0.0031376206 -0.06797483 -0.07444533
000250 92 64 c4 bc 1a 5d 71 bd 3d ab f3 3d e5 2a 83 3c
       -0.023973737 -0.05892668 0.118978955 0.016011665
000260 d1 15 1a 3e b1 56 d2 3d d8 13 4c bc a1 1f 88 bd
       0.15047385 0.10270441 -0.012455903 -0.06646658
000270 ca 0f 04 be 83 b4 13 bd 16 eb 14 bd 79 09 2a bd
       -0.12896648 -0.03606082 -0.036357008 -0.04151294
000280 67 e6 fe bd db f0 2f bd d9 91 6d 3d e4 dc 00 3e
       -0.124462895 -0.042954307 0.05800042 0.12584263
000290 34 64 86 3d a2 80 87 bd 18 1e 52 3d e6 96 e0 3d
       0.06562081 -0.06616332 0.05129823 0.109662816
0002a0 32 39 aa 3c 7a 45 f0 3d fd 48 3e 3d 35 b7 56 3c
       0.020779226 0.117320016 0.046456326 0.013105203
0002b0 a6 66 7c 3b f0 99 e9 3d 58 52 0c 3e 8b c1 ec 3c
       0.0038513332 0.114063144 0.13703287 0.028900882
0002c0 46 cd 65 3d a3 74 7f bd 48 aa 1d 3c 1f 68 73 bd
       0.056103967 -0.062367093 0.009623118 -0.05942547
0002d0 0c c1 d4 bc f8 d5 a7 3c 8f 52 7f bd 02 25 04 bd
       -0.025970958 0.02048777 -0.062334593 -0.032261856
0002e0 6c 48 55 bd e6 45 99 3c 32 95 8a bd f6 d3 45 3d
       -0.05207102 0.018710088 -0.06766738 0.048297845
0002f0 34 69 b5 3c eb 9b d7 bd 75 9c e5 3c cc 9c c9 bc
       0.022144891 -0.10527786 0.028028706 -0.0246109
000300 41 ff 62 3d dd aa 6f 3b 30 92 fd bd b3 78 1a 3b
       0.05541921 0.0036570348 -0.12381399 0.0023570477
000310 46 0d 24 3d 97 79 32 bd 43 15 78 bd aa 9e b3 bd
       0.04005172 -0.04357299 -0.06056715 -0.08770497
000320 12 30 22 be f9 f7 f9 bc f6 cc 5f 3e 22 6a 90 3c
       -0.1583865 -0.03051375 0.2185553 0.017628733
000330 60 88 88 3d dc bb 6b bd 3f ba 18 be 19 25 78 bd
       0.066666365 -0.057552204 -0.14914797 -0.060582254
000340 b8 b6 f2 3b a2 64 f5 bc 02 c7 0a be d5 59 22 bb
       0.0074070357 -0.029955212 -0.13552478 -0.0024772782
000350 3f 2f fa bd 03 91 b8 3d 5c 91 61 bd c9 45 4a bd
       -0.12216043 0.09012034 -0.055070266 -0.04938296
000360 06 27 83 bd 4d a5 14 be 4d 96 8d 3d 7b da 2b 3c
       -0.064039275 -0.14516182 0.06913433 0.0104891015
000370 74 6b 3e 3e 4f ac d9 3c 50 84 21 3e aa d8 d4 3d
       0.18595678 0.026571421 0.1577313 0.10392888
000380 38 a7 3f 3c d4 aa 24 be 38 9e 6c be 79 a0 47 be
       0.011697583 -0.16080791 -0.2310723 -0.19494809
000390 d6 87 52 be 15 fd 3b be 3b dd ac bd 9f 9b 3a be
       -0.2055963 -0.18358262 -0.08440634 -0.18223427
0003a0 9c e4 67 be 32 5c 23 be 67 33 54 bd df ee ca bd
       -0.22645801 -0.15953138 -0.051806834 -0.09908842
0003b0 60 19 25 be 2d e7 78 be db 26 d1 bd 06 4e 81 bd
       -0.16122961 -0.24306937 -0.10212489 -0.0631371
0003c0 b3 e9 aa bd 37 65 03 be ef ed 1a be bf cb 42 be
       -0.08345356 -0.12831579 -0.15129827 -0.19023035
0003d0 73 0d 89 bd d3 7a 57 be b5 cf 6c be d1 fe 16 be
       -0.06692018 -0.21042947 -0.23126109 -0.14745642
0003e0 92 e4 20 be 03 34 5c be 2c 50 39 3e 75 1d 23 3e
       -0.15712193 -0.21504216 0.1809699 0.15929206
0003f0 a9 89 7e bd e5 5e 00 bc 13 7c 93 3c dc f8 a2 3d
       -0.062143 -0.007835125 0.0180035 0.079576224

conv2.bias f4 [16]
000000 bb 71 dd be a2 cf 0f 3f fe cb 57 bf 5d cb 74 bd
       -0.43250832 0.561762 -0.8429564 -0.059764255
000010 ea 7c 34 3e 93 e9 b9 be 60 b8 8d 3f 35 b5 60 3d
       0.17625776 -0.36311015 1.1071892 0.054860312
000020 7b ae 7c bd bd 38 1f 3f e5 8a 26 be 94 a7 03 3e
       -0.061689835 0.6219595 -0.16263922 0.12856895
000030 42 00 ce bc e0 91 21 3e f7 0b 97 bd d7 53 a9 3e
       -0.025146607 0.15778303 -0.07375329 0.33071777

fc1.weight f4 [120, 400]
000000 cf 5f d5 3c 40 9b 5a bd 02 9a 9c bd fa 33 d6 bc
       0.026046662 -0.053370714 -0.07646562 -0.026147831
000010 a5 30 2f bd 37 f0 84 ba 41 af 01 bc d2 4b 42 bd
       -0.042771 -0.001014239 -0.007915319 -0.04743559
000020 2f cd d5 bc d8 fd 88 bd b9 37 40 bd 1b ef a5 bc
       -0.026098816 -0.06689042 -0.04692814 -0.020255616
000030 b8 ef 23 bd 8c 8d ee bc 1e 05 39 3b 17 02 95 b7
       -0.040023535 -0.02912023 0.002823181 -1.7763157e-05
000040 2a 2a 55 bd da 15 47 bc 4d 14 69 3c e8 8a 4e 3d
       -0.052042164 -0.012151206 0.0142260315 0.05042544
000050 9b 75 7f bd 21 75 b0 bc 0c 04 27 bd 62 d2 f9 39
       -0.062368017 -0.021540226 -0.040775344 0.00047649728
000060 1d 5c 3f 3d 66 63 82 3d 89 83 26 bd 44 7e 23 3d
       0.046718705 0.06366615 -0.040652785 0.03991534
000070 3e 3e cb 3b c6 a7 78 3d 23 74 88 bc 2e 7e 2c 3d
       0.006202488 0.060706876 -0.01665694 0.04211252
000080 47 27 3b bb f3 c3 a8 bc f9 cd 82 3d df 72 07 3d
       -0.0028557347 -0.020601248 0.063869424 0.033068534
000090 2c 0e 36 bd 11 af d6 3b fa a5 58 3b ff 4e 70 3d
       -0.04444711 0.0065516313 0.0033057914 0.058669087
0000a0 97 bd 4b 3d aa 00 ed bc 8e 85 45 3d 46 d7 d5 bc
       0.049741354 -0.02893098 0.04822307 -0.026103627
0000b0 37 52 d1 bc 87 ba 03 3d 45 42 57 3d ae 6b 9b bc
       -0.025551898 0.03216031 0.052553434 -0.018972244
0000c0 77 83 85 bc 79 d3 56 3d bb 12 d4 bd c2 d9 93 bb
       -0.016298039 0.05244777 -0.10355135 -0.0045120427
0000d0 65 da 01 bd e3 44 af bd 1a 84 24 bb cc 26 13 bd
       -0.031702418 -0.08558061 -0.0025103153 -0.03592567
0000e0 34 0d b3 bd 1a 3d 0c 3d ac 0c ce 3c 8c 89 f5 bc
       -0.08742753 0.03423796 0.025152527 -0.029972814
0000f0 00 9c b3 bd dc 84 4f bd 8c 1b 63 bc 0d 57 0c 3d
       -0.08769989 -0.050663814 -0.013861548 0.034262706
000100 09 fd b3 3d 9b 48 55 bd 6d 5b bc bd 5d 42 11 3d
       0.08788497 -0.052071195 -0.091971256 0.03546368
000110 be 33 4b 3d 00 d8 96 3d 23 12 6d bc 2b a8 74 bc
       0.049609892 0.073654175 -0.014469656 -0.0149326725
000120 c3 be 21 bc 6c 95 7b 3b b4 99 55 bd f2 52 49 bc
       -0.009872141 0.0038388623 -0.052148536 -0.012287842
000130 4e df 06 3c 27 fa f6 bc 80 4e 04 3c 7c 2b 54 bd
       0.008231951 -0.030148579 0.0080753565 -0.051799282
000140 d8 3e f0 bc 0a bf 53 bc 65 7f 0b bc b9 16 2f 3d
       -0.029326841 -0.012923965 -0.00851426 0.04274628
000150 75 24 2d bd c4 88 bc bc d5 b9 46 3b 87 fb 9c 3c
       -0.042271096 -0.023014434 0.0030323167 0.019162906
000160 3d 9d 50 bb e8 72 2b 3d b6 1b f1 bb d2 8b 04 bd
       -0.0031832003 0.04185763 -0.0073580397 -0.032359906
000170 dc b9 a1 3c b6 d6 7a 3d 5e 06 37 bb bf 4b bc bc
       0.019741945 0.06123992 -0.002792738 -0.022985337
000180 f3 05 a9 bc a6 b3 87 bb 49 a6 40 bc 14 9a d3 bc
       -0.02063272 -0.004141289 -0.0117583955 -0.025830306
000190 9f cb c2 bc 73 ed fa 3c f3 cb 7e bd 85 08 50 3c
       -0.023778735 0.030630803 -0.06220622 0.012697344
0001a0 0b 4a 26 bb 3e 8a 1f 3d a7 4a ae bc d8 d8 3d bd
       -0.0025373723 0.038950197 -0.021275831 -0.046349376
0001b0 b0 99 e2 bc 6c 33 d0 3c bf 43 84 bd 71 2d 09 bd
       -0.027661175 0.025415145 -0.06458234 -0.033490602
0001c0 3d ac ec 39 ad fd 0a 3d 65 9c 7c 3d a0 8e bb bc
       0.00045141755 0.03393333 0.061672587 -0.022895157
0001d0 05 54 d2 3c f7 f8 83 3d 4d 63 a3 3d 90 76 2b bd
       0.02567483 0.06443971 0.079779245 -0.041861117
0001e0 cc a3 23 bd 57 59 06 bb ab 0b 0e 3c 3e 4e 7f bc
       -0.03995113 -0.0020500028 0.008669774 -0.015582619
0001f0 fa 5e 96 3c 2d 98 80 3b 74 41 1f bd 2f 75 56 bd
       0.018355835 0.0039243908 -0.03888078 -0.05235785
000200 9d 40 66 bd 93 48 96 bb 96 5f 05 bd 6c 50 99 bd
       -0.056213964 -0.0045862882 -0.03256186 -0.074860424
000210 1f 0f 73 3c 6b 35 e2 ba a2 8d 61 bc 5a 78 64 bd
       0.014835148 -0.0017258351 -0.013766678 -0.05577884
000220 a1 95 92 bd 3a 19 d9 bc 67 79 cc 3c d5 a9 57 bd
       -0.07157446 -0.026501287 0.024960233 -0.0526522
000230 ab 5c b7 3c 47 75 76 bd d5 92 84 bc e9 4c a6 bc
       0.022383055 -0.06017044 -0.016183296 -0.020300345
000240 e1 82 5a bd da c1 51 bd 44 0f 32 3d 0c 24 32 3d
       -0.053347472 -0.051210262 0.04347159 0.04349141
000250 9f 01 19 3d 3c 2b 0f 3c 60 f4 e4 3c 5f 6f 7c 3d
       0.03735506 0.008738335 0.027948558 0.06162965
000260 3d 36 0c bb 2b 6d 18 3d 03 11 09 3d 28 c6 0c 3c
       -0.0021394633 0.037213486 0.03346349 0.008592166
000270 17 db 8a 3d 30 31 50 bc f8 4a 91 bc b9 16 50 3d
       0.06780069 -0.01270704 -0.017735943 0.05080292
000280 82 2d 04 bd 9b 5e 25 3d 0f e3 96 3d f1 f1 66 bc
       -0.032269962 0.040373426 0.07367527 -0.014095769
000290 fa 02 94 3c 0d 1f fb 3b 6a 38 29 3d 2e ff 6f 3d
       0.018067826 0.0076636137 0.041313566 0.058592968
0002a0 87 ed 5a bc e9 3c 98 3c fa 55 9b bc 96 22 b6 bb
       -0.013362295 0.018583732 -0.018961895 -0.005558322
0002b0 49 e2 68 ba 15 7e 72 3d 01 3a c2 3c 68 99 78 3c
       -0.0008883817 0.059202272 0.023709299 0.015173294
0002c0 78 2a 29 bc 17 d2 2d 3d d9 e3 97 3d b8 1b 57 3d
       -0.010325067 0.042436685 0.07416505 0.05251667
0002d0 4b 28 26 3c 70 b8 90 3c 61 7b 9c bc 62 a9 f5 3c
       0.0101414425 0.017666072 -0.0191018 0.029987995
0002e0 17 63 a7 bc 1b 23 74 3d 6c e6 15 3d 1d 77 14 3d
       -0.020432992 0.05960379 0.0365967 0.036246408
0002f0 91 0f de bc b6 69 2a bd e0 c4 85 bc 08 78 89 bd
       -0.027107032 -0.04160472 -0.016329229 -0.06712347
000300 0e 20 06 3d a1 ad 7a 3d c4 a2 ab 3d 97 45 a1 3c
       0.032745413 0.06120074 0.083806545 0.019686503
000310 a7 77 7a bd 0d 0e 5c 3c 66 9b 09 3d 80 83 86 bb
       -0.061149266 0.013431084 0.033595465 -0.0041050315
000320 bc 31 71 bd a4 0c ff bc b2 5f 6b 3c 6c 57 14 3d
       -0.05888532 -0.031133957 0.014366077 0.036216184
000330 d5 7f 43 bd 26 7e 0c bd 9f ce 0c bd 58 5f 9b 3c
       -0.047729332 -0.034299992 -0.034376737 0.018966362
000340 7b 33 d2 bc f4 08 6b 3c a1 e3 17 bd 39 8b 58 3d
       -0.025659313 0.014345396 -0.03708232 0.052867148
000350 44 de 82 3c e9 fa 05 3d b5 ae 26 bd 08 ff 04 bd
       0.015975125 0.03270999 -0.040693957 -0.03246978
000360 e5 08 d1 3c 80 a4 03 bd 9f 19 35 3c d8 ff d4 3b
       0.025516937 -0.0321393 0.011053472 0.0065002255
000370 78 56 b6 3c 7c d2 95 39 af ef 92 bc 60 e3 4f 3a
       0.022258028 0.00028576318 -0.017936556 0.0007930305
000380 84 a5 b9 bc dd 77 61 3b 9a db 8f 3c 9a fd d9 bb
       -0.022661932 0.003440372 0.017560769 -0.006652546
000390 c1 1c e3 3a 92 aa bc bc 06 6c a5 bb d8 4c 8a bc
       0.0017327295 -0.023030553 -0.005048278 -0.016882345
0003a0 07 65 e7 bc 28 11 14 bc 05 6d 32 bc 5d 17 77 bd
       -0.028246416 -0.0090372935 -0.01089025 -0.060325015
0003b0 83 54 74 bd ed 53 91 3a 40 4b c2 3c 63 7a 78 3d
       -0.05965091 0.0011087634 0.023717523 0.060663592
0003c0 1a a6 ae bc 2c 73 92 3c a8 1f 0f 3d 9b dd 1d bd
       -0.021319438 0.017877184 0.0349423 -0.038541418
0003d0 d7 58 a9 3c c5 03 6e 3c a3 55 58 bd 59 0d df 3b
       0.020672245 0.014527266 -0.052816045 0.006807011
0003e0 d7 72 d5 ba 78 21 dd 3c e5 f4 44 bb 47 86 83 bd
       -0.0016284835 0.026993498 -0.0030053195 -0.06422096
0003f0 33 cb 89 3b a9 23 88 bd 45 53 63 bd ab 6e 2f bd
       0.0042051314 -0.06647427 -0.055499334 -0.04283015

fc1.bias f4 [120]
000000 02 32 af 3d 3d ae 49 bc 97 94 e3 3c 31 61 35 bd
       0.0855446 -0.012309608 0.027780814 -0.044282142
000010 d6 ca f8 bc 60 08 2c 3e 17 d1 04 3e 3f a0 4a bd
       -0.030370157 0.1680007 0.12970386 -0.04946923
000020 1c 06 b9 bb 58 7e c6 3d a5 11 d8 3b 3d 71 04 3d
       -0.0056464802 0.09692067 0.0065939003 0.032334555
000030 d3 84 d0 3d 3c 92 b6 3d 45 d3 a5 3c 5d fd 07 3e
       0.10181584 0.08914611 0.020242343 0.13280244
000040 ad 92 e0 3d 60 99 88 bd 67 0c 39 3d e9 8b 6f 3d
       0.10965476 -0.06669879 0.045177843 0.058483038
000050 9a 33 0a 3d 69 30 b7 3d 12 16 e2 bd 29 48 ae 3c
       0.033740617 0.089447804 -0.11039366 0.021274643
000060 db 0d d0 bd 75 c0 61 3d 14 41 6b 3d 00 33 1c bd
       -0.10158893 0.055115182 0.05743511 -0.038134575
000070 e0 34 03 bd 8f 18 c7 3c b1 d5 66 3c 3d a8 08 3e
       -0.032032847 0.024303703 0.014089034 0.13345428
000080 6b 51 38 bb de 15 67 3d 7a 8d 5f bd bc 66 1e bd
       -0.00281247 0.05641734 -0.054578282 -0.038672194
000090 42 3a 43 3d d9 5a ad 3b 50 40 b0 bb 4a 2b fa 3c
       0.04766298 0.005290371 -0.0053787604 0.03053822
0000a0 68 b2 eb bd 98 79 25 bd 51 f7 13 3d 81 d2 0f bd
       -0.11508638 -0.040399164 0.03612453 -0.03511286
0000b0 63 e6 0f 3e b1 e9 1b 3d 02 c8 07 bd c3 5c 81 ba
       0.1405273 0.038064662 -0.033149727 -0.0009869564
0000c0 86 97 4a 3e 44 85 ce bd aa 94 95 3c be 8b a3 3d
       0.19784364 -0.10084012 0.018259365 0.07985638
0000d0 eb b6 2a 3e 00 ca 83 bb f8 ea 58 3c c9 6c 21 3c
       0.1667134 -0.004021883 0.013239615 0.009852597
0000e0 fd 24 87 3b 3c 53 95 3d fd 75 f2 3c b3 72 12 3d
       0.0041242824 0.07291266 0.029597277 0.035753917
0000f0 93 5e 09 be 0a 9d dc 3d c1 39 17 3e ae 58 88 3d
       -0.13414983 0.1077214 0.14768125 0.06657539
000100 99 8d a8 bc 69 a3 a9 bb e8 82 01 be c2 90 ad bd
       -0.020575332 -0.0051769507 -0.12647593 -0.08474876
000110 18 81 dd 3d e7 00 10 3d 37 10 15 be bf 6c 9a bd
       0.10815638 0.03515711 -0.14556967 -0.07540273
000120 db 8d 94 bd e8 20 41 3d 90 ab 05 bc 97 a5 9e bc
       -0.07253619 0.047150522 -0.0081585795 -0.019366069
000130 03 62 eb bc 08 43 07 bd db c4 1c 3b 03 af 8c bc
       -0.028733259 -0.03302291 0.0023921046 -0.017173296
000140 18 7e 1e 3e b4 20 a0 3d 41 44 aa bd ef 1e 01 3d
       0.15477788 0.078187376 -0.083138 0.03152364
000150 f6 a2 c7 3c 73 a6 d1 bd 62 64 6f 3c bf f1 26 3d
       0.024369698 -0.10236826 0.0146113355 0.04075789
000160 27 88 8a 3b c6 f8 31 bd 5d 41 78 bc e7 f1 34 bc
       0.0042276564 -0.04345014 -0.015152303 -0.011044002
000170 9f 1f 83 3d 64 ae 9a 3d 27 c3 96 bd 84 af 31 bd
       0.064025156 0.075527936 -0.07361441 -0.043380275
000180 7f b3 24 bd 88 49 54 bc 5e c5 06 bd 51 3b 82 3e
       -0.040210243 -0.012956984 -0.032903068 0.2543588
000190 b8 f3 48 3d 9c 6c 45 3d 61 cf 08 3c ba c0 01 3d
       0.049060553 0.04819928 0.008350224 0.03167794
0001a0 7f 11 dd 3c a5 a1 5b 3e 6b e7 80 bd c0 85 ae 3d
       0.026985882 0.21448381 -0.062941395 0.085216045
0001b0 3c d4 fb 3b e5 d4 cb 3b 04 39 57 bb 26 a5 f5 3c
       0.0076852124 0.0062204474 -0.003284038 0.029985975
0001c0 a6 74 a4 3d a4 48 1d bd 31 b5 fe bc d9 28 44 3c
       0.080300614 -0.038399354 -0.031092258 0.011972629
0001d0 b0 5e dc bc 4a c9 94 3c d2 6b 06 3e e5 65 07 bc
       -0.02690062 0.018162388 0.13127068 -0.00826404

fc2.weight f4 [84, 120]
000000 ad e7 90 bd 65 84 70 bd 16 e7 b1 3c 97 8c ff bc
       -0.07075439 -0.05872001 0.021716636 -0.031194968
000010 e9 aa 78 3d 54 a2 7a bc 0f c0 b9 ba 04 0f 47 bd
       0.060709868 -0.015297491 -0.0014171618 -0.048598304
000020 56 0a b4 bd 42 46 19 3d 43 7f d8 3d 2e 12 a8 bd
       -0.08791034 0.03742052 0.10571148 -0.082065925
000030 74 98 8c 3d e7 58 e5 bb 3c 70 93 3d 6b bf e8 3d
       0.068650156 -0.0069991234 0.071991414 0.11364635
000040 0f 77 2d 3c 0a 71 c2 3d 64 76 02 3d f1 31 9e bd
       0.010587468 0.09494217 0.031851187 -0.07724369
000050 71 e9 95 3d dd dd 26 3d 43 67 87 3d 15 81 66 bb
       0.07319916 0.04073893 0.066114925 -0.0035172154
000060 56 cb 6d 3d 65 19 fe bd 4d 9b 6f bc 0d ac 57 3c
       0.058055244 -0.12407187 -0.014624429 0.013163579
000070 b6 93 9d 3d 3c a0 86 bd 65 b8 93 bd 7f b0 60 3d
       0.07694189 -0.06573531 -0.07212905 0.05485582
000080 e2 74 d9 3c d7 d1 92 bd 4e 5b a4 3c 3c f7 83 3c
       0.026544992 -0.0716893 0.020063069 0.016109101
000090 7b b2 3b 3c 73 05 08 3d e0 b9 90 bc 85 e2 44 3d
       0.011456127 0.03320832 -0.017666757 0.04806759
0000a0 05 1e 9f bd 47 a0 d7 bc 0b d1 cc 3b 2a 40 47 bb
       -0.07769398 -0.026321543 0.006250506 -0.0030403235
0000b0 54 4e a0 bb f0 61 bc bc 77 0c 6f 3c ad fe 1d 3d
       -0.00489215 -0.022995919 0.014590374 0.038572956
0000c0 be e4 bf bc 26 0a f8 bd 03 bf 55 bd b7 fb b4 3d
       -0.023424502 -0.12111311 -0.052184116 0.08837073
0000d0 c1 80 57 3d c0 e4 e1 bc 9f 94 9b bd 36 73 e3 3c
       0.052613024 -0.027574897 -0.075967066 0.027764898
0000e0 9b a2 2c bd c6 03 ab bd 86 35 8d 3d 70 38 bc bd
       -0.04214726 -0.08350329 0.068949744 -0.09190452
0000f0 29 a9 6c bd 6e ea 1f bd 77 f9 09 bd 5f 4e b0 bd
       -0.05777851 -0.03904193 -0.033685174 -0.08608698
000100 c6 a7 bc bd 31 6e 64 3c 40 99 0b 3d 26 51 a0 3d
       -0.09211688 0.013942287 0.034081697 0.07827978
000110 53 12 1e ba b9 e6 00 bc 66 c5 32 3d 92 d9 44 bd
       -0.0006029952 -0.007867509 0.043645285 -0.048059054
000120 28 3b 2f 3d 67 35 6c 3d 0c 0d 51 bd 40 b6 48 bd
       0.042781025 0.057668116 -0.051037833 -0.049001932
000130 93 2f 92 bd 74 33 37 bd f9 f5 d3 3d 84 6b c0 3d
       -0.0713798 -0.044726804 0.1034965 0.09395507
000140 9d 13 2b 3a 2b a2 4a 3e 76 dc 17 bd 22 9d 48 bd
       0.0006526055 0.19788425 -0.037075482 -0.04897798
000150 58 d1 84 bd d3 1f 30 be ad 0b f0 3c f7 fb 14 bc
       -0.06485242 -0.1719964 0.029302442 -0.009093276
000160 c1 c8 a1 3d f6 10 01 3e 29 83 bf bd 7a 4f 7b bc
       0.07899619 0.12604126 -0.09351189 -0.015338773
000170 7c 33 00 3d e0 83 23 3d cd ac 1c be a2 3c 19 3d
       0.0312991 0.039920688 -0.15300293 0.03741134
000180 43 7f ba bd 6e 89 78 3c a6 c3 22 3c 8f ea 55 3d
       -0.091063045 0.015169485 0.009934342 0.052225646
000190 b8 20 ec 3d 32 ce 03 bc c0 2a 73 bd 3e 96 b0 3c
       0.11529678 -0.008044766 -0.05936694 0.021556016
0001a0 4b 0b 2d 3d b2 c4 0a be 95 b5 8e 3d 0c 9a 9c 3c
       0.042247098 -0.13551596 0.06968228 0.019116424
0001b0 f0 b8 77 3d 2b 21 61 3c 03 3d 1a bd 32 23 3e bd
       0.060479105 0.013740818 -0.03765584 -0.046420284
0001c0 a2 b8 8b 3d 98 93 6b bd 9f d2 2f 3d b0 be c5 bd
       0.06822325 -0.057513803 0.042925473 -0.096555114
0001d0 11 bb f7 bc f3 c8 c9 3d c2 31 8a 3d e3 a9 32 bd
       -0.030240567 0.09852781 0.06747772 -0.043619048
0001e0 18 a7 05 be b7 f8 ce 3c 4f 35 11 bd ba 46 8f bd
       -0.13052022 0.02526508 -0.03545123 -0.06995912
0001f0 0c 68 c7 bc 87 3c 84 bd ec 80 8c 3d a5 10 14 bc
       -0.024341606 -0.06456857 0.068605274 -0.0090371715
000200 78 3b b2 bb 1f fe 06 be e8 0e 57 bd 48 63 5d bc
       -0.005439218 -0.13182877 -0.05250445 -0.01351244
000210 b6 55 02 be 01 ea 22 bc ce f0 66 bd 67 5b b8 bd
       -0.12728009 -0.009943486 -0.056381993 -0.090018086
000220 27 d2 03 3d f7 a4 a5 bd cd d7 b3 bd cb 61 60 3d
       0.03218284 -0.08088105 -0.08781395 0.054780763
000230 e4 a5 c3 bd 6a 02 ab bd 75 c7 1f bd 4f 73 a1 3d
       -0.095531255 -0.0835007 -0.039008576 0.078833215
000240 a7 1e b8 3d e5 be 01 3d a5 e9 a0 bc 2c f3 e3 3c
       0.089902215 0.03167619 -0.01964266 0.027825914
000250 7a dc 33 bb c4 87 46 3d 9e 8f 22 3d 7a 02 99 bc
       -0.0027444647 0.04846932 0.039687745 -0.018677939
000260 c2 62 95 3d d3 e8 d0 3d b8 73 f8 3c 66 d2 35 3d
       0.07294227 0.10200658 0.030328616 0.044390105
000270 62 56 bf 3d 52 23 06 3c 24 c2 84 3d df 3c a2 bb
       0.09342648 0.008187132 0.06482342 -0.004951104
000280 37 d8 7a bd 42 0e e2 bb ff a1 80 bd ab bb 05 bd
       -0.061241355 -0.0068986723 -0.06280898 -0.032649677
000290 bf c0 98 bd d4 ce 97 3b a9 e1 da 3c 8d 84 76 3d
       -0.074586384 0.00463281 0.026718931 0.060185004
0002a0 5d c0 bb bd f2 8f 1f bd 4e e2 c2 3d 91 93 82 bc
       -0.0916755 -0.038955636 0.095158204 -0.015939506
0002b0 4b 78 d2 bd 22 76 c2 bd 93 2c 02 3d 71 41 7e 3d
       -0.1027685 -0.09495188 0.03178079 0.06207413
0002c0 05 8b 0a 3c 7b c8 84 3d 1b 26 1b bd 5b 78 54 3d
       0.008455996 0.06483551 -0.037878137 0.051872592
0002d0 9b b6 3d 3d 33 1a 86 bc b4 02 4a bd 90 26 9c 3d
       0.046316724 -0.016369915 -0.049318984 0.07624543
0002e0 bc 81 0c 3d 14 4d 3b 3d 6f e1 b1 bd 60 11 0d be
       0.03430341 0.045727804 -0.08685576 -0.1377616
0002f0 a1 d0 09 be 98 5d 39 3d 2f 17 ed bc c4 37 bc 3d
       -0.13458492 0.045255274 -0.028941719 0.09190324
000300 9a 76 1d bc 1e 6d a8 bd ec 17 30 3d 6b 42 20 bd
       -0.009610796 -0.082239375 0.042991564 -0.03912584
000310 dd 73 8d bd 57 d4 93 bd ea 3c 10 3d a4 38 e3 3d
       -0.06906865 -0.07218235 0.035214342 0.11094788
000320 ed 55 d1 bd 9a 91 d7 bd c1 63 f0 3d 03 c2 58 bc
       -0.10221467 -0.10525818 0.117377765 -0.01322985
000330 e6 16 7e bd cb 40 a3 3d 42 f8 c4 3b 77 7d 86 3d
       -0.062033556 0.07971343 0.00601104 0.06566899
000340 10 17 18 bc aa 5d 4f 3d db 61 91 3d d4 df 98 bd
       -0.009282842 0.050626434 0.070987426 -0.07464567
000350 9d 36 6f 3d e8 2f d8 bc cd cb ff 3d d0 b2 59 3d
       0.058401693 -0.026390031 0.12490044 0.053149045
000360 7a 96 48 3d be b5 18 3d 02 c4 39 bc 94 c1 98 bd
       0.04897163 0.037282698 -0.011338236 -0.07458797
000370 18 31 23 bd ae 21 c3 bd e9 e5 29 3d 20 6b 12 bd
       -0.03984174 -0.09527908 0.041479025 -0.035746694
000380 14 c9 92 bd 64 2f c7 bd 04 16 5c 3c 47 e0 b4 bd
       -0.07167259 -0.09725836 0.013432983 -0.0883184
000390 d9 87 31 be c1 66 ec 3d 3a 4a 7f 3d 04 ba da 3c
       -0.17336978 0.11543036 0.062326647 0.026700027
0003a0 1e bf ca bc 5b 5a f1 ba 3b 98 99 3d 49 5b 57 bd
       -0.024749335 -0.0018413769 0.07499739 -0.05257729
0003b0 e7 e0 b3 3c 8f 4b 47 bd 30 e8 42 bd 05 0f 92 bd
       0.021957828 -0.048656043 -0.047584713 -0.07131771
0003c0 d1 3d a2 3c d1 4d 72 3d 2e 99 cb bc 19 2a 04 3d
       0.019804867 0.059156243 -0.024853315 0.03226671
0003d0 bc 82 91 bd 27 4b c1 bd c8 ee 4e 3c 9f 4c 53 bd
       -0.07105014 -0.09438162 0.012630172 -0.051586743
0003e0 53 bd 85 bd 2d 09 5f bd c2 de a1 bd 86 65 49 3d
       -0.06530251 -0.05445211 -0.07903816 0.049169086
0003f0 e3 c3 92 3d 77 2a cb 3d f9 db 91 3d f6 ad 50 bd
       0.07166269 0.09920209 0.071220346 -0.050947152

fc2.bias f4 [84]
000000 f7 c2 a1 3d d4 2f ce bd 38 17 6d 3c 65 65 9e 3d
       0.07898515 -0.10067716 0.014470868 0.07734183
000010 06 ee 71 3e b5 2f 82 3d 1a 00 ca 3e a4 31 00 bc
       0.23625955 0.06356756 0.39453202 -0.007824335
000020 11 bd c3 3e 44 1a 6c bd eb 33 6c bc d8 b8 2b bd
       0.38230184 -0.057642236 -0.014416675 -0.041924328
000030 dd 5c b2 bd 7d 4d 30 3e ed 6f a0 bd ca 28 15 3d
       -0.087091185 0.1721706 -0.07833848 0.036415853
000040 92 56 9d 3c a7 0e 7c 3e ac 1c bb 3d 0f e8 97 bd
       0.019206319 0.24614964 0.09136328 -0.074173085
000050 0b 93 b4 3c f8 de 11 3e 7d 51 62 3e 19 69 8b bd
       0.022042772 0.14245212 0.22101398 -0.06807155
000060 21 b8 01 be 02 f6 55 3e 4d 04 d8 3b ee c1 02 3e
       -0.12667896 0.20894626 0.0065923096 0.12769291
000070 20 d2 2f 3d 03 d2 3e 3e 7a 96 9a 3d 84 17 cf 3d
       0.042925 0.186348 0.075482324 0.10111907
000080 0c 73 12 3e 5e 04 9e bc 23 cb 66 bd 2c 1b 93 bd
       0.143017 -0.019289192 -0.05634607 -0.07182917
000090 9e 0e 34 3e bd bc f8 bc cf cc 28 3e 80 4d 00 3e
       0.17583701 -0.030363435 0.16484378 0.12529564
0000a0 c7 ca 17 3e ef 39 c5 bd a3 1e 57 3c a7 1a 17 be
       0.14823447 -0.096301906 0.013129863 -0.14756261
0000b0 b8 3e fb 3d 93 d6 07 3c 94 a4 3b 3d 3b 14 8f b9
       0.12267822 0.008290905 0.04581125 -0.00027290158
0000c0 82 a4 68 3d 8d 25 89 3b 05 c1 b9 bd dd 45 4f bd
       0.056797512 0.0041853846 -0.09070019 -0.050603736
0000d0 6c 78 7a 3c 5a 97 a9 3d aa 96 92 bd 37 15 a2 bc
       0.0152875 0.08280821 -0.07157643 -0.019785507
0000e0 f3 65 3c 3d c4 48 4a 3e a2 9e 54 bd a4 48 6c 3d
       0.045995664 0.1975432 -0.051909097 0.057686463
0000f0 7b 25 0a 3d 55 2b 8d bc 66 01 61 bd 24 8d 7d 3d
       0.03372715 -0.017232576 -0.054932974 0.06190218
000100 52 7a 41 3e 85 68 98 bd c5 2c 73 bd f7 f5 16 bd
       0.18894318 -0.074418105 -0.059368867 -0.036855664
000110 f2 7a 99 bd df 52 41 3e ca a7 55 3a f9 1b a0 3d
       -0.07494153 0.18879269 0.00081503077 0.07817835
000120 c5 e6 7f 3c 34 19 d0 3c 48 cd a9 3e de e6 97 bd
       0.015618985 0.025402643 0.3316443 -0.07417081
000130 0d 83 77 3d 99 2d 29 3d 62 1f 35 3e a5 22 27 3e
       0.060427714 0.04130325 0.17687753 0.1632181
000140 a8 f3 c5 bb 76 52 98 3d b5 26 c1 3c 5e f1 aa bd
       -0.006041009 0.07437603 0.023578027 -0.083468184

fc3.weight f4 [10, 84]
000000 fa 1b 31 3e 95 f0 0d bd b3 ee 33 3c 91 15 0e 3e
       0.17295828 -0.034653265 0.010982203 0.13875414
000010 ec 80 c4 bd d7 7f 46 3d 2a 89 5e be ce d1 5c bd
       -0.095949024 0.04846176 -0.21732011 -0.053911023
000020 b3 d0 a4 be 16 01 61 3d 68 2b 90 bd 9f 93 4c 3e
       -0.32190475 0.054932676 -0.07039529 0.19978188
000030 c1 33 23 3e 73 2c 34 3e be 41 6b 3e 2a 8c d3 bd
       0.15937711 0.17595081 0.22974297 -0.103294685
000040 f1 59 2b 3d e7 59 74 bb c9 0d f5 bd 57 77 0f 3b
       0.04183382 -0.0037285031 -0.1196552 0.00218912
000050 45 98 b0 bd 49 0f b3 bd 28 75 87 be b4 64 bb 3d
       -0.08622793 -0.0874315 -0.2645657 0.09150067
000060 20 03 63 3b 80 14 73 3c 80 c9 65 bd 12 89 08 be
       0.0034639314 0.014836431 -0.05610037 -0.13333538
000070 24 01 30 3e b3 41 a1 3c 26 3e 53 be a1 4a e5 3d
       0.17187935 0.019684648 -0.20629176 0.11195875
000080 3f 51 50 bd c9 5b 70 3d e2 c4 49 3d 05 a7 f4 3d
       -0.050858732 0.058681283 0.049260028 0.11945919
000090 7b 29 0f 3e cb 63 05 3d 74 84 f1 bc 17 ba 0f bd
       0.13980667 0.032565873 -0.029482104 -0.03508958
0000a0 d3 06 9e 3d 57 3c 81 3d 00 07 a3 b9 14 e3 11 be
       0.07716145 0.06310337 -0.00031094998 -0.1424678
0000b0 99 70 75 3e 9d 41 14 3e a2 cf 38 be 84 9d ee 3d
       0.23968734 0.14478154 -0.18047956 0.116511375
0000c0 79 38 4a 3c 36 72 9a 3e 44 6e 39 bd 70 09 51 bc
       0.012342566 0.3016526 -0.045271173 -0.012758598
0000d0 4c b8 fe bb bb 6a 04 be a9 cd 2c bc 46 f1 82 3d
       -0.0077734347 -0.1293134 -0.01054708 0.063936755
0000e0 6f 75 a0 3d 04 06 b6 3d ac d4 5a bd 21 e8 78 3e
       0.07834899 0.08887866 -0.053425476 0.243073
0000f0 c3 87 5d bd 4b 85 01 bd 4b 56 03 be 7a 00 89 3d
       -0.05408455 -0.03162126 -0.12825887 0.06689544
000100 80 84 23 be d8 83 49 3d a3 de 83 3e 8e de 9a bc
       -0.15968513 0.049198 0.25755796 -0.01890495
000110 83 45 53 3e da ce ae bd 0e cd 73 be 20 ef 38 3e
       0.20631985 -0.085355476 -0.23808691 0.18059969
000120 0b 65 48 3e 8a 11 a5 bd be eb b2 3e d9 31 06 3e
       0.19569795 -0.08059986 0.34945482 0.13104953
000130 77 00 05 3d 33 65 cc bd e9 e0 4c bd 92 fd 7e bb
       0.032471146 -0.0998024 -0.05001918 -0.0038908464
000140 16 1f 96 3d ad f8 16 3d 52 34 00 3e a7 9e da bd
       0.07330148 0.03685825 0.12519959 -0.10674792
000150 07 f4 23 bd b8 cb 3d 3e 78 87 a8 bd 52 dc 90 be
       -0.040027644 0.18534744 -0.082289636 -0.2829309
000160 75 65 48 be 26 4d 44 3e 2e fc 51 bd f1 68 a9 bc
       -0.19569953 0.19170055 -0.051265888 -0.020679923
000170 16 92 9f be 02 c3 29 bd cc 83 c1 bc df 3d 4d 3e
       -0.31166142 -0.04144574 -0.023622416 0.20043133
000180 15 30 42 3d 52 77 28 bd 63 1c 7a 3e ee 83 e7 ba
       0.047409136 -0.041129418 0.24424891 -0.001766322
000190 f5 79 82 3e 82 34 34 be 3c fa c9 bd 15 71 00 be
       0.2548367 -0.17598155 -0.098621815 -0.12543137
0001a0 7f 73 a5 bd 3e 63 0c be 35 30 88 be ad 5b 7a 3b
       -0.0807867 -0.13709733 -0.2659928 0.0038201616
0001b0 6c 8b ff 3d 8c ed 97 be ca 82 21 be 47 c1 4f bd
       0.124777645 -0.2967342 -0.15772548 -0.050721433
0001c0 a2 98 14 3e d1 7b cc 3d b1 19 ae 3c 35 59 3b be
       0.1451135 0.099845536 0.021252485 -0.18295749
0001d0 3f aa df bd bd e0 a1 bd 1c a1 37 bd 6e 2b ea bd
       -0.10921144 -0.079041936 -0.04483138 -0.11434065
0001e0 55 10 54 be 46 36 38 bd 2b 80 45 be 32 c1 bc 3d
       -0.20709355 -0.044973634 -0.19287173 0.092165366
0001f0 c2 bd 10 3d 89 ea 9e 3e 98 6d 43 bc f2 6e 48 bc
       0.035337217 0.3103831 -0.011927985 -0.012233483
000200 9c d3 66 3d 28 8d de 3d 95 f2 50 3e 88 a6 33 bd
       0.05635415 0.10866767 0.20405038 -0.04385999
000210 26 e2 84 3d 40 b0 ef 3d 5d da 2a bd 7d 72 7a 3d
       0.06488447 0.11703539 -0.041712154 0.06114434
000220 6a 73 51 3e 45 5b 16 be 19 d4 95 bc 1c 1e 4d bd
       0.20454183 -0.14683254 -0.018289613 -0.050077543
000230 f5 80 0d 3d ba 1c 08 be c5 92 8d bd c5 75 f2 bd
       0.03454681 -0.13292208 -0.0691276 -0.11838869
000240 5f c7 f7 bc 65 2c 9d bd 61 ad 8d 3d ec 8a 77 be
       -0.030246435 -0.07674483 0.06917835 -0.24174088
000250 ba d6 25 bd fc d4 86 3d ad 92 01 be ef 8e 0b 3d
       -0.040487982 0.06583592 -0.12653609 0.03407186
000260 11 bc 70 bb 35 9c 07 bd af 9d ea 3d a4 3e 11 3e
       -0.003673319 -0.033107955 0.11455857 0.14184052
000270 46 77 26 be 9e 61 79 bc 43 cf 52 bc 39 b4 50 bc
       -0.16256437 -0.015221028 -0.012866798 -0.012738281
000280 f2 0e fa bd 30 2d aa 3d ed 99 80 3d 1f 45 36 be
       -0.12209882 0.083094 0.06279359 -0.17799805
000290 f7 72 0c be 97 f3 4d 3e 1b 49 8e 3e 56 38 cb 3d
       -0.1371573 0.20112453 0.2779015 0.099228546
0002a0 16 6e 01 3e ea a3 37 3d 82 fb ca 3d 05 20 90 3e
       0.1263965 0.044834055 0.099112526 0.2814943
0002b0 cc d2 65 3e 54 d4 41 be 36 e3 97 3e da 1e 10 3e
       0.22443694 -0.18928653 0.29665536 0.14074269
0002c0 03 9c c4 3c f5 f4 c0 3d 51 c4 df 3c 9c d9 ab bd
       0.024000173 0.09421722 0.02731529 -0.08391115
0002d0 07 45 5c 3d 3b 08 89 3a 58 e4 0a be 3d 38 17 3e
       0.053776767 0.0010454723 -0.13563669 0.14767547
0002e0 02 cc 63 bd 80 f2 81 3d 6e 97 f3 bd 88 de 1c 3e
       -0.05561448 0.06345081 -0.11894117 0.15319264
0002f0 70 cf ce bd b1 d7 23 3e d9 7d 61 bd a1 33 fc bb
       -0.10098159 0.16000248 -0.05505166 -0.0076965843
000300 b0 c6 05 bd b1 df 8c 3e db 90 4b 3d 2d 0d 91 bd
       -0.032660186 0.27514413 0.04969869 -0.07082591
000310 ef b4 1a be 30 19 9f bd 79 ec ec bd eb 86 07 3e
       -0.15108083 -0.07768476 -0.11568541 0.13235061
000320 b9 91 1f 3e 10 a1 80 3c e3 49 db 3d 4e ca 91 3d
       0.15582933 0.0157018 0.10707452 0.07118665
000330 06 0b 23 bd 5b 64 8b bd 06 50 b7 bd 69 ef e4 bd
       -0.039805435 -0.06806251 -0.0895081 -0.11178476
000340 b5 42 d2 bb 05 fd a9 bd d2 f3 1f be 2e ea d5 3c
       -0.0064166435 -0.08300213 -0.15620354 0.026112642
000350 95 6f 13 3e a9 48 c7 bc 3e ab a5 bd e5 3c ae bc
       0.14398034 -0.02432664 -0.080893025 -0.021269271
000360 57 cc 8d bd fd 55 cf 3d b9 53 08 be 0c ac 4d bd
       -0.0692374 0.10123823 -0.13313188 -0.050212905
000370 77 81 b5 bd 82 38 4b bc ab 2a 4f 3d c3 d8 80 3d
       -0.08862584 -0.012403609 0.0505778 0.06291344
000380 60 b0 a1 bd 60 cf 8d 3d 16 ee 18 bd 77 03 4f bd
       -0.07894969 0.06924319 -0.03733643 -0.050540414
000390 5b dc bd bd a2 14 f6 3d be 95 38 3e a9 52 5a bd
       -0.09270545 0.12015654 0.18025872 -0.053301487
0003a0 33 53 66 3d 0e e7 da 3d d0 11 11 3e 71 28 ad 3d
       0.05623169 0.106886014 0.14166951 0.08454979
0003b0 91 8c d6 bc 85 8b 4e 3e 67 84 05 3e 24 d4 13 3e
       -0.026190074 0.2017041 0.13038789 0.14436394
0003c0 5b 5d 42 3e 3e 51 ce 3d fa 35 e9 bd c5 35 bf 3c
       0.18980925 0.100740895 -0.11387248 0.023341069
0003d0 8c 76 ba 3c 00 ee 05 be ed b8 2d 3e ea 7e 3f 3e
       0.022761606 -0.13079071 0.16965075 0.18700758
0003e0 46 33 15 3e 5a f7 73 bd ec 16 6d be fa 7f 8b bd
       0.1457034 -0.059562065 -0.23153275 -0.06811519
0003f0 66 ad 88 bd 05 d4 30 3d e4 e7 7f bd 9a 47 2f be
       -0.06673698 0.043170948 -0.062477008 -0.17117158

fc3.bias f4 [10]
000000 ef 1c 43 be 0f d0 07 bf 86 9e ec 3d ad c3 a8 3e
       -0.19054006 -0.5305185 0.115536734 0.3296179
000010 07 07 fa 3e 3b 01 03 be 41 5c 5f 3e f1 ba a8 be
       0.48833486 -0.12793438 0.21812536 -0.32955125
000020 c7 03 d5 3e 51 29 b2 be
       0.41604444 -0.34797147
