mnist_net.pth (torch, 243143 bytes, 10 tensors)

conv1.weight f4 [6, 1, 3, 3]
00000000: 81de 47be 891f 393d 51eb e53e 756c 6bbe
00000010: 7579 d2bd 5871 653e ea48 793d c44c 1ebe
00000020: b418 713e 2a80 81bd fa4e e33d fd31 8d3e
00000030: e0a2 ac3e b735 fbbd 6e99 5f3e aa36 21be
00000040: 2b26 83be 3cbf 2abe c629 c83e 28e4 1f3f
00000050: c993 bb3e b95f 043f caa7 8d3e 9725 2c3e
00000060: 62dc 033f fc00 7ebd 12a9 73be dd68 223d
00000070: bf47 b6be 1ab3 1dbf fae2 fb3e 0c21 463e
00000080: 3de8 babd 90d2 733e eb1b 263f f0db cc3e
00000090: 930f c8bd 3cd3 3b3e a496 dc3c 90eb 9c3e
000000a0: 065f 863d de4b a23e 4eb4 9cbe fe3e 553e
000000b0: f06d 49be b665 a43e 0f05 1f3f 534a 4b3e
000000c0: 8815 f93e 0b6d bd3e e720 22be 9165 8a3e
000000d0: a40b 62be 7c4f 973e
-0.19518472 0.04519609 0.44906095 -0.22990592 -0.10277072 0.22406518 0.060860552 -0.15458971
0.2354458 -0.063232735 0.11099048 0.275772 0.33718014 -0.12266105 0.21835873 -0.15743509
-0.25615057 -0.16674513 0.3909437 0.62457514 0.3663619 0.5170856 0.27667075 0.16811214
0.5150815 -0.062012658 -0.23794964 0.039650787 -0.35601613 -0.6160141 0.49196607 0.19348544
-0.09126327 0.23810792 0.6488635 0.4001155 -0.097685955 0.18342298 0.0269273 0.3064847
0.06561093 0.31698507 -0.30606312 0.20824811 -0.19670844 0.3210885 0.62117094 0.19852571
0.4864924 0.36997256 -0.15832864 0.27030614 -0.22074753 0.2955283

conv1.bias f4 [6]
00000000: 425d a83e eb77 12be 65b6 c83e e0b0 143f
00000010: d04f 0c3d 2d86 363f
0.3288365 -0.14303558 0.39201656 0.5808239 0.034255803 0.71298486

conv2.weight f4 [16, 6, 3, 3]
00000000: 5a2c cfbc ab07 90bd 6751 2cbd a666 293c
00000010: bb24 073e 1ced d0bd 4588 b33d c302 273d
00000020: 0035 37bd 085a 63bd 9eb0 ffbd 46e5 c93d
00000030: 1686 59bd 5a7b e63c 4874 22bc 1952 6e3d
00000040: eafc d6bc ea87 353c 4d87 1bbd 1ed1 22bc
00000050: c682 cdbd cbe6 8cbd 0643 a6bd f4f7 a83c
00000060: 9b8e 363d 7aa5 183d 1410 433e e84e 41bd
00000070: 7549 34bd 5921 e83d 1893 4b3e 2ffb 793d
00000080: 28fb 0e3e fbc1 2e3e afd2 313e a7e7 453e
00000090: ca21 ebbd fadb 9dbc 0235 ebbd 523f e7bd
000000a0: a6b5 b6bc ec78 e2bd 1abd 253d 5a84 473d
000000b0: c7ba 263e 9a2f aabd 686c bfbd 95bf 393c
000000c0: 3306 35bd aafb eebd de54 a83a 75e3 a33d
000000d0: 2a36 8d3d b4cf 363e 0fe8 4d3e 9ac6 9d3d
000000e0: c162 b0bd 89a4 1c3e a696 b2bd 4301 833d
000000f0: 46f4 513e e306 603c a139 d03d 9986 f8bc
00000100: 0786 f8bb 94b1 38bd cc03 d93d 105b 11be
00000110: 9a61 b83c 8780 afbd fd8c 953d d517 eebd
00000120: 2d80 d93c e02f 0c3e bc99 863d 630e afbc
00000130: 1367 873e 99bd 233e c3aa 963e ef52 7e3e
00000140: e20a a43d 5449 2a3e de66 66bc a533 0d3e
00000150: b91e 753c a373 5d3e e47d 483e d87e 193e
00000160: 6737 5a3e 65b7 743e b68f 8abd b6cf ccbd
00000170: d2b8 9cbd 0429 c83d 486f 0b3e b9e1 ab3d
00000180: 46cd 223e 96cf d9bc ab23 a63d a551 59bc
00000190: 5965 b23d 79c1 ef3c df1d 5e3d 1fe7 a63e
000001a0: f938 823d fdb9 e43d 902f 853e 8a77 c73d
000001b0: 3d29 003e e1fd 073e fbcb 19be c1f1 ecbc
000001c0: b773 233d 0081 213a cafb 893d 8e88 fa3d
000001d0: d272 ab3c 358d 95bd 87c5 dd3d bf41 2fbd
000001e0: 62fd 80bd 0970 c2bd 7085 02be 0bd2 e53c
000001f0: 075f ac3d 7f9c 333d 925a c4bd bfe6 f73b
00000200: 0b25 ddbc 3ab7 0b3e 5a32 3a3e ece4 13bd
00000210: 66c5 9abd af78 883d 97ba 723d 6a61 0a3e
00000220: 2fb7 413e 5d1c ff3d 6430 c1bd 1a32 ccbd
00000230: c594 233e 5901 cfbc eab6 c63d a52a a3bd
00000240: 2340 b83d 5d11 b1ba baac 41bd f9d4 6ebd
00000250: 10e8 ec3d 196c bcbc 6137 50bd 15c4 9f3d
00000260: c4fd 983c efa3 7bbd 68e2 f23d d6b5 ce3d
00000270: 5308 94bd e9d9 433c 86ce fe3d e9a4 a2bd
00000280: 646b 883d 215e 893d 18ff b1bd 371b d2bd
00000290: 958b 13bc 6601 c73d da17 943d 849f e73d
000002a0: e22b 9b3d 2861 293e 5be2 2f3e 4933 70bd
000002b0: 5916 eebd ab7e 62bd e2e4 cbbd d822 953d
000002c0: 0478 a0bd 2e21 01be d664 983d ff58 fd3d
000002d0: d2fe 61bd a26b 463d f35f 8ebd d650 74bd
000002e0: 062b 50bd c8d4 bcbd bd65 31bc de0b 3fbd
000002f0: 936d d0bd 4086 d7bd 07b1 02bd 1b40 9b3d
00000300: 6bcb 493d fac4 153d 3927 d73d 685d d13c
00000310: 3a91 11bd 98a9 f33d dd51 85bc 15bc fb3d
00000320: e536 72bc c5a9 d03c f736 ec3d 851d 91bd
00000330: 2934 80bd 3e4b 31bc 57de 6d3d 481e 063e
00000340: 83af 1f3e 9600 113e a624 263b ef7c ab3c
00000350: 9c94 82bb bcec a1bd 2caf 063d 3960 da3d
00000360: 6b59 e1bd 22b0 d2bd 8810 a53c dee3 18bd
00000370: 9bef a9bd 07f1 97bc a60f 0c3e cc01 c73d
00000380: 4d51 603d e5c9 e13d ce5a 9abc b81b 9fbd
00000390: 96ff 01bd 34ff 83bd 7bb1 f6bd 9ba8 033e
000003a0: bb78 11bd 3d0e b1bd bb4f 04be 7052 09bd
000003b0: 2317 d23d d5c5 cabd 99f2 013d 0007 74bd
000003c0: ff6f 513d 1ab5 dcbd 159b e9bd 2494 9f3c
000003d0: ba94 fabd 6eee e1bd be67 65bd f824 983d
000003e0: 09e5 8fb9 aa02 343e 3b30 0f3e e353 713d
000003f0: 4aaa a33d 2ecc a13c b7ce 633d 4929 233d
-0.025289703 -0.070327125 -0.04206982 0.010339415 0.13197605 -0.10201475 0.08766226 0.04077412
-0.04472828 -0.055505782 -0.12484859 0.098581836 -0.05310639 0.02813499 -0.009915419 0.058183763
-0.026243646 0.011079768 -0.03797083 -0.009937553 -0.10034709 -0.06879958 -0.081182525 0.020626046
0.044569593 0.037267186 0.19049102 -0.04719439 -0.044015367 0.113344856 0.1988033 0.061030563
0.13962996 0.17066185 0.17365526 0.1932665 -0.11481054 -0.019269932 -0.1148472 -0.11291374
-0.022303414 -0.1105822 0.040463544 0.048710205 0.16282187 -0.083098605 -0.09346849 0.011337181
-0.044195365 -0.11669095 0.0012842675 0.08002368 0.068950966 0.1785267 0.20108055 0.07703896
-0.08612586 0.1529714 -0.0872014 0.06396725 0.20503339 0.013673517 0.10167242 -0.030337619
-0.0075843367 -0.045091227 0.10596427 -0.14194894 0.022507478 -0.085694365 0.07302282 -0.11625639
0.026550377 0.13690138 0.06572291 -0.021369165 0.26445827 0.15990295 0.29427156 0.24836324
0.08009888 0.16629535 -0.014062611 0.13789232 0.014960938 0.21626143 0.19579273 0.14989793
0.21310197 0.23898084 -0.06765692 -0.10000555 -0.07652439 0.09773448 0.13616669 0.083926626
0.15898618 -0.026588243 0.08112272 -0.0132640945 0.08710737 0.02926706 0.054227706 0.32598206
0.06358523 0.11168287 0.2601285 0.09739597 0.12515731 0.13280441 -0.15019219 -0.028923871
0.039905276 0.0006160885 0.06737478 0.12233077 0.020928774 -0.07302324 0.10828691 -0.04278731
-0.06298329 -0.09494025 -0.12746215 0.028054258 0.084165625 0.04385042 -0.095875874 0.007565349
-0.026995203 0.13644114 0.1818327 -0.03610699 -0.07557182 0.066636436 0.059259977 0.13513723
0.18917535 0.12456582 -0.09433058 -0.099704936 0.1597472 -0.025269197 0.09702857 -0.07967118
0.08996608 -0.0013509203 -0.047283866 -0.058308575 0.115677 -0.023000764 -0.050834063 0.078010716
0.018675692 -0.061435636 0.1185959 0.10093276 -0.0722815 0.011953809 0.12441735 -0.0794161
0.06661108 0.06707407 -0.086912334 -0.10259097 -0.009005447 0.097170636 0.07231112 0.11309722
0.07576729 0.16540968 0.17176192 -0.05864266 -0.11625356 -0.05529658 -0.09955765 0.072820365
-0.07835391 -0.12610313 0.07441108 0.1237049 -0.055174656 0.04844249 -0.069518946 -0.059647404
-0.05082228 -0.09220272 -0.010827479 -0.046642177 -0.101771496 -0.10523653 -0.031907108 0.075805865
0.04926626 0.036564805 0.10505528 0.025557235 -0.03553889 0.11897582 -0.016274387 0.12291733
-0.014783596 0.025471577 0.11533921 -0.070857085 -0.06259949 -0.010821162 0.058073368 0.13097489
0.15594296 0.1416038 0.0025351434 0.020933596 -0.003985001 -0.079064816 0.0328819 0.10662884
-0.11003383 -0.10287501 0.020149484 -0.037326686 -0.08297654 -0.018547548 0.13677844 0.097171396
0.054765034 0.110248365 -0.018842127 -0.07768959 -0.031737886 -0.064451605 -0.120455705 0.12857287
-0.03551553 -0.08645294 -0.1292104 -0.033525884 0.10258319 -0.09901015 0.0317255 -0.05957699
0.0511322 -0.1077673 -0.11406533 0.019479819 -0.122353986 -0.11031805 -0.05600714 0.07428926
-0.0002744573 0.17579141 0.13983242 0.05891789 0.079914644 0.01975068 0.05561706 0.039834294

conv2.bias f4 [16]
00000000: cd5f c03d 272a b73c dcdb 903d 8213 e3bc
00000010: 0c4d 0f3e 51ba 40bd 76d1 7537 958d 133e
00000020: 90cf 02be 2a2f d83d d408 a53d ef16 e1bc
00000030: d18c a8bc 4bba 103e df53 92bd 7c5a 51bd
0.093932725 0.022358967 0.07073185 -0.027719263 0.13994235 -0.047052685 1.4651907e-05 0.14409478
-0.12774491 0.10555871 0.080583245 -0.027476756 -0.020574959 0.14133565 -0.071449034 -0.051111683

fc1.weight f4 [120, 400]
00000000: 4565 b9bb 2629 273d 0670 0ebd f2a5 0ebd
00000010: 8e0c 24ba 54f2 32bb 4e6a 2d3d 5756 6e3d
00000020: b13f d3bc 7d6a 5dbc a321 413d 99c2 f33b
00000030: 51c9 04bd fd99 2bbd 53b2 09bd 35db 2ebd
00000040: 55b1 0b3d 478f 2c3d 40d7 16bd ade2 f83c
00000050: b10e 0ebd 8a21 33bd caee a83c a465 76bd
00000060: 9249 163d 07c3 09bd d3a8 39bc a535 23bd
00000070: bd38 533d 208e b1bc 42bf 51bc 992b b9bc
00000080: 2daa 313d 73e0 013c ec94 263c 0bc8 34bc
00000090: 72d0 323d 09a7 723a 4d67 343c a72f 283c
000000a0: 6fac 2c3d 2c06 edbc 73a4 2dbd 998d ca3c
000000b0: a5db 55bd 4ec4 8bbc 0de9 9c3c 7912 3d3d
000000c0: 8218 8d3c b6ad 80bd aed3 1e3c effb 5a3c
000000d0: 5639 14bd 2ced 353d 7d33 00bc fc80 15bd
000000e0: 5280 913c b4a0 cebc 1bca 093d b864 4e3c
000000f0: 6955 3c3d 66ad 16bd 081c bbbb 344d 8a3c
00000100: 7376 063d b511 8c3c bc0a 2c3d 8b8d 16bd
00000110: 5c92 803c 861b c33c d382 96bc 39fb 37bd
00000120: 5828 22bd db13 db3c 55b2 413c ba71 7f3c
00000130: 56ae 82bb 6f79 1a3d 5d5b 013c 2201 a8bc
00000140: c7bd 15bc bad0 2d3d 2815 093d 7677 f63c
00000150: c0aa 65bc 4b63 1e3b 4cde ab3b cf58 0f3d
00000160: b7dd 84bb f80b 023d 7766 843c 64ef 24bd
00000170: 84f9 3ebd d8eb 1c3d 4726 f9bb 0de6 593c
00000180: 5aa4 063d ce5e e0bc f283 32bd 69dc 17bd
00000190: 8849 353d 2f09 ffbc 9f56 3a3d 1cc9 e4bc
000001a0: 0ce1 3b3d 4054 27bd b6e1 01bd 8559 d83c
000001b0: 61eb 01bd fb55 2ebd ade9 ec3c 6edf f73c
000001c0: b0e2 d739 112d 18bd f221 ffbc d274 acbc
000001d0: 7ef0 b4bc eda4 243d c76a f83c 4668 21bc
000001e0: 6b96 90bc a2fa cf3c 94ab 3fbd d7f6 48bc
000001f0: a344 8c3b 92b9 fb3c 835a 373c 3097 b63c
00000200: f899 c1bc f213 9abc 3554 36bd 3a43 473d
00000210: a5b1 c03b 8b8d 90bc 0d09 c93c ff7f df3b
00000220: e3bf 27bd d215 2fbd 2c2b 3abd c612 28bd
00000230: ae3d 09bd db59 6e3d 93d7 9a3a b451 30bd
00000240: ba29 983c 05de ab3a 1124 c0bc 9507 49bc
00000250: 7d00 a83c 7d0a 2dbd 453d ac3c 8683 d4bc
00000260: 8aba 7cbd 89d5 16bd 308a 47bd 0499 abbc
00000270: 7a68 123d a5de d13c 9764 84bc ed84 463d
00000280: a1bd 903c 6b45 72bb c083 beb9 89da 11bd
00000290: 101d 8dbc 1014 3abb 108e b4bc 3c9f dabb
000002a0: d766 3e3d f9da d83b 9e42 fb3c c76a ea3c
000002b0: fc18 193d 378b ba3c e941 36bd 082e a8bc
000002c0: 34a7 103c d8aa 983c 1c2f 583b d427 dc3c
000002d0: f5f3 33bd 5373 13bd b56b 903c c147 cf3b
000002e0: 9641 063d 2dcc 103d e7d5 37bc deef 483d
000002f0: 1a8d 303d 11e8 f8bc 31be 873b 4fa5 6b3c
00000300: 7bd9 323d d514 c03c 8bc2 d43c a3c2 c7bb
00000310: 8f6a 0dbd 7b50 ff3c 5e17 cfbc 7980 1cbd
00000320: f399 cd3b 1af9 2cbd e3a2 a4bc 117d 6bbc
00000330: deaa 8c3c 90ca 333d f249 4cbd 25f3 333d
00000340: 754b 02bd 91e0 cc3b 8027 1bbd e5db 383d
00000350: 179b 8cbc b5d1 253d 35a8 88bc 2d8c 443d
00000360: 7fd8 2f3d af02 1a3d 0f27 1cbd d63a 073d
00000370: b320 d5bb 6dfd cebc bfe7 203d 6721 cbba
00000380: 913e d4bc b998 e6bc 06d8 42bd 7a99 023b
00000390: b089 3dbc 725c 043c d4a1 1bbd afe4 f4bc
000003a0: 7fb8 603d 53b6 ab3c 3811 1d3d 2a34 9fba
000003b0: 4a71 33bd bd90 8c3c 8b3e 76bc 3cff a2ba
000003c0: 25b0 cd3b 58d0 18bd 5188 8cbc efdf 023c
000003d0: cc28 98bc 726d 32bd c225 18bd 13fb 783c
000003e0: 1e71 40bd b151 a8bc 7269 1bbd 109f 4d3c
000003f0: bb8b 49bd bfd8 4d3c 9b0c e9bc 15f9 24bd
-0.005657824 0.040810727 -0.034774803 -0.034826227 -0.00062579743 -0.0027305083 0.04233771 0.05818781
-0.025787206 -0.013514158 0.04715122 0.0074389693 -0.032418553 -0.0418949 -0.03361733 -0.04268952
0.034104664 0.042128827 -0.036826372 0.030381525 -0.03468198 -0.043733157 0.020621676 -0.060155526
0.036691256 -0.03363326 -0.011331755 -0.03984608 0.05156778 -0.021674216 -0.012801947 -0.022603797
0.043375183 0.007927048 0.010167342 -0.011034022 0.04365582 0.00092564576 0.011010957 0.010265267
0.042156633 -0.028933607 -0.04239316 0.024725722 -0.052211422 -0.017061379 0.019154096 0.046160195
0.0172236 -0.06283133 0.009694023 0.01336573 -0.036187492 0.044415638 -0.007824776 -0.036499962
0.017761383 -0.025223114 0.03364001 0.012597255 0.04597989 -0.03678646 -0.0057101287 0.016882516
0.032827806 0.017098287 0.042002425 -0.03675608 0.01569479 0.023816835 -0.018372929 -0.04491732
-0.039589256 0.026742866 0.011822303 0.015591079 -0.0039880676 0.037713464 0.007895318 -0.020508353
-0.009139485 0.042435385 0.03346744 0.03008626 -0.014017761 0.002416807 0.0052450057 0.034996804
-0.004054751 0.031749696 0.01616214 -0.040267363 -0.046624675 0.038310856 -0.00760344 0.013299477
0.03287158 -0.027388956 -0.043582864 -0.037075434 0.044259578 -0.031132309 0.045492765 -0.027927928
0.04586892 -0.04085183 -0.031709395 0.026409874 -0.031718615 -0.042562466 0.028920019 0.030257907
0.0004117689 -0.037152354 -0.031144116 -0.021051798 -0.022087332 0.040196348 0.030324353 -0.009851521
-0.01764985 0.025388066 -0.04679449 -0.012265882 0.004280643 0.030728135 0.011191013 0.022288889
-0.023632988 -0.018808339 -0.0445139 0.048648097 0.005880552 -0.017645618 0.024540449 0.0068206782
-0.04095448 -0.04274542 -0.04545133 -0.04103353 -0.033506088 0.05819116 0.0011813514 -0.04304667
0.018574584 0.0013112432 -0.023454698 -0.012269874 0.020508045 -0.04224633 0.02102531 -0.025941622
-0.061701335 -0.036824737 -0.04871577 -0.020946987 0.035744168 0.02561886 -0.016161246 0.04846661
0.017668547 -0.0036967646 -0.00036337785 -0.035608802 -0.017225772 -0.0028393306 -0.022040397 -0.0066718142
0.046484794 0.0066179004 0.030671414 0.028615369 0.037377343 0.022771461 -0.04449645 -0.020529762
0.008828927 0.018636152 0.0032987064 0.02687446 -0.043933827 -0.035998654 0.017629484 0.0063256924
0.03277739 0.035350967 -0.011220432 0.04905688 0.043103315 -0.030384095 0.0041425456 0.014382674
0.043664437 0.023447433 0.025971672 -0.0060962006 -0.03452545 0.031166306 -0.025279697 -0.03820846
0.0062744557 -0.04222975 -0.020097202 -0.01437308 0.01717132 0.04389435 -0.049875207 0.043933053
-0.031810243 0.0062523563 -0.037879467 0.045131583 -0.017163796 0.040483195 -0.01668177 0.047985245
0.042931076 0.037600216 -0.038123187 0.033015095 -0.006504142 -0.025267327 0.03928351 -0.0015497626
-0.02590874 -0.028148996 -0.047569297 0.0019927905 -0.011568472 0.008078681 -0.03799613 -0.029894201
0.05486345 0.020960962 0.0383465 -0.0012146283 -0.043809213 0.01715886 -0.01502956 -0.0012435685
0.0062771016 -0.037308067 -0.017154844 0.00798796 -0.018574141 -0.043561406 -0.037145384 0.0151965795
-0.046982877 -0.020546766 -0.037942357 0.0125501305 -0.049205523 0.012563883 -0.028448394 -0.040276606

fc1.bias f4 [120]
00000000: 9c90 20bd 2e2d eabc cba4 dd3c 7055 da3c
00000010: 8822 25bd 714a 29bd 3a72 c9bb 58a1 03bd
00000020: 50c8 72bb 87b7 4c3c 721b e2bb f698 4d3d
00000030: b6bd b43c 44fe 293c e5c3 8dbc 2225 0abd
00000040: 7074 893c 6dd7 25bc 9b9a ecbb e232 543c
00000050: b88e f8bc 7c31 863c 459a 4abc 6e58 013d
00000060: b5ab 203d 915f 09bd aaaa 21bd b675 6a3c
00000070: eb69 d5bc 8964 f6bc cc1a 073d 7dbd 3ebd
00000080: 8dcf 663d c593 16bd 4518 65bc f2da cd3b
00000090: 32a1 1a3d eb32 ddbc 1a1d 1d3d 56b4 b13b
000000a0: 89c2 73bc f832 9e3c 9bf8 98bc 7590 c73b
000000b0: 37c1 4d3c efb2 593b 47ec b83c bbe9 17bd
000000c0: 71f4 d83a 45dc 32bc d4e8 293d a178 153d
000000d0: a594 b3bc e03b 1d3b fdae 7c3d 5a7c bfbc
000000e0: 0905 d6bb ac0f 8a3c 9550 eabc cd85 12bd
000000f0: 6e25 c23c a9e9 1f3d 676b d3ba 9740 2dbd
00000100: 052d 0d3d 8f6e 1dbd fd05 853a 13b7 9a3a
00000110: 2acc 99bb 6ab2 1dbd 6f3e d43b 2e15 13bd
00000120: b68b 69bb 096f 493d 8f1b 9c3b fb1a 473d
00000130: 8de9 223c 554d f4bb 8fbb 0ebd f0d1 9cbc
00000140: e3b5 96bb 9f6a 2d3d 5274 e8bc c267 4dbd
00000150: e031 db3c 887f 6bba fe0f b03b fc3b 863d
00000160: d6d5 143b df05 1cbd bc27 42bc 3b92 0c3d
00000170: 4586 39bc ac94 8939 aa96 553d 02ff 803a
00000180: 6f6f e8bc 4bc4 7ebb 0a8d 783d 0795 623d
00000190: 6363 0fbd 90d1 adbc ed49 353d 419a 0abd
000001a0: e9dc e83c 0b9f e3bc b701 f83c e7ec d4ba
000001b0: 106b 243c c9c4 3e3c 9ab7 853c 303f 1bbc
000001c0: 393c 8abc 9e3a 10bd 5a72 41bc 362a 483d
000001d0: a35c 86ba 4d03 26bd a3d6 72bc 4272 b4bc
-0.03920041 -0.028585996 0.027056118 0.026652068 -0.040316135 -0.04133076 -0.00614765 -0.03213629
-0.0037045665 0.012494928 -0.0069002444 0.050194703 0.022063117 0.010375563 -0.017305324 -0.03372682
0.016779155 -0.010122162 -0.007220579 0.0129515845 -0.030341491 0.016381018 -0.012365882 0.031578474
0.039226253 -0.033538405 -0.0394694 0.014310291 -0.026051482 -0.030077236 0.03298454 -0.04656743
0.05635028 -0.036762018 -0.013982837 0.006282204 0.037751384 -0.027001819 0.03835783 0.005423109
-0.014877924 0.019311413 -0.018673232 0.0060902187 0.012558273 0.0033218225 0.022573603 -0.037088137
0.0016552341 -0.010916774 0.041481808 0.036491994 -0.021921465 0.0023991987 0.06169032 -0.023374725
-0.006531362 0.016853176 -0.028602878 -0.035772134 0.023699488 0.039041195 -0.0016130031 -0.042297926
0.034466762 -0.038435515 0.0010148879 0.0011803828 -0.0046935277 -0.038500227 0.006477169 -0.03590887
-0.0035636253 0.049178157 0.0047640274 0.048609715 0.009943378 -0.0074555078 -0.03484684 -0.019143075
-0.0045993193 0.04233801 -0.028375778 -0.05014778 0.02675718 -0.0008983542 0.005373 0.0655441
0.0022710464 -0.038091537 -0.011850294 0.034319144 -0.011323516 0.00026241445 0.052145638 0.0009841623
-0.028373448 -0.0038874324 0.06068138 0.055317905 -0.035006892 -0.021218091 0.044259954 -0.033838514
0.02842565 -0.027785799 0.030274255 -0.0016244919 0.010035291 0.011643597 0.0163229 -0.009475514
-0.01687442 -0.03521215 -0.011807049 0.04886838 -0.0010250997 -0.04053049 -0.014821681 -0.022027139

fc2.weight f4 [84, 120]
00000000: ac94 80bd 5974 343c 4b37 86bd 0980 2cbd
00000010: 54f6 003d 8b9d 373d 602a 2cbc a1eb 563d
00000020: 1efb 03bd 83c5 023d f66e 913d c69e 3ebd
00000030: 0188 f7bc d7f0 3e3d 8bfd c2bc 6ee7 07bd
00000040: 7261 c33c f277 9d3b 23c4 883d c308 a9bd
00000050: 33cc abbc 0881 d83c 00f2 933c a092 a6bd
00000060: 3f3e 20bd 7d9e 12bd d8fd b53d 8a51 773c
00000070: 02e8 83bd 5395 8d3d c0ca 81bd fc47 9ebd
00000080: 8cb8 623d 6a9d 3c3d ba95 cfbc a18e 9abb
00000090: 84ec dc3a efff 94bd f558 3bbd 2b15 a63d
000000a0: 9f6c 4ebd 9a4c d33c 2ae5 f3bb 489f a0bc
000000b0: ed80 82bd 862a 86bc c9ef 563d 1f80 94bc
000000c0: 0ac5 4a3d 60c3 39bd 2a7f 71bc 72e2 813d
000000d0: ea88 9b3d 45a2 a43d 9e32 613d 7b12 8ebd
000000e0: 64a6 7dbd b1cf 083c 3658 503c c09c 95bd
000000f0: d117 46bd 60a8 f3bc fbb9 9e3d a448 0e3d
00000100: 9571 6ebd 4ed5 ad3d 1856 573c 2f1b 2e3b
00000110: 273a 343d 9e95 5dbd 5899 503d 2912 483d
00000120: 9ec7 a23d 9c81 b7bd 4846 773c 747d ae3c
00000130: fd8e 0cbc 706b 5f3c 723b a1bd fdef 67bd
00000140: 1577 e93b fc8a 763c f91d 3c3c fd70 92bb
00000150: 61c5 55bb 3344 af3c 2b73 93bb 44b4 813d
00000160: 219a 7cbd c8dd 89b9 cc55 2abd f07e 873d
00000170: 2220 7c3c ff99 723d b601 203d ca86 913c
00000180: c0f6 09bd 11f8 153b 391d ab3c 935b 9bbd
00000190: 0154 873d 4fae 8bbd 9b4e 643c 76e9 a0bc
000001a0: 4930 91bc 40e4 45bc b3be 103d 62f7 ab3d
000001b0: f5a1 8c3d d986 853d 543f 20bc f4d1 90bd
000001c0: aad0 c7bc cf23 463c 6450 953d 8782 5e3d
000001d0: 429f e53c 3a3c a73d 6421 ba3a c140 193d
000001e0: 7ac5 12bd 851c 593d 4e77 99bd 9457 cb3d
000001f0: 9f4d a83d 4a36 acbd 2e68 0e3c 36f9 a13d
00000200: bb61 323c 578a 8d3c 45fb 9abd 8bab 913d
00000210: e385 6abd ebbb 843c 777b a93d 8449 be3c
00000220: 48a4 5cbd 3d2c a7bd 72bc 363d 680e e1bd
00000230: 22e0 9c3d c314 78bd 4437 263d 5273 48bc
00000240: a908 193e 6b99 9bbd 385a 1a3d da8d f0bd
00000250: da09 ea3c 5ccb 77bd 7763 b23d b1db 973d
00000260: db95 84bd 26bd df3c ae10 2e3d 9973 4e3d
00000270: f375 de3a 32e5 44bd fadb 863d 4626 75bd
00000280: 935c fb3b e095 113e b5a0 613c 6526 35bd
00000290: 3c83 893c cb94 b8bd ff64 f3bd 4631 11be
000002a0: ab8b 05bb a0ba a4bd 01b3 a83c 1964 cabd
000002b0: 639d 9e3d 6e75 f5bc e380 5e3d bc0e 813d
000002c0: 6128 79bc e693 623d 069e 01bb 1969 a63d
000002d0: e9f1 9ebd 64fc 323d af9f 2d3d 71b7 83bc
000002e0: 938d 9bbc a92e 643d c422 c4bd ad57 62bd
000002f0: c231 aa3d eaaf 953d 516c 9dbd e0e2 05bd
00000300: 5551 bd3d 1877 88bd b3a0 943d 0862 8ebd
00000310: 6443 ebbc c6d1 9c3d 2a17 573d b56a f43d
00000320: 8c0d f73c 1f00 bdb9 0ad3 573d 100d 89bd
00000330: c502 c43c 2d18 b0bd 5967 7b3c 9ce2 ae3d
00000340: 4688 77bd 4d1c fb3c 484a b33b 3928 e5bc
00000350: 6412 a03d a511 913d 77fd 7fbd f51a b5bd
00000360: a095 093d 238d bc3c 7b89 34bd 203f a93d
00000370: e2dd e83c c7e7 2c3c a446 38bd c0c6 9ebd
00000380: 17fe 0fbd f676 47bd d36b 153d 40ef 153c
00000390: 51f5 483d e621 4e3d 1c09 a03d 7a0f 1d3d
000003a0: 46b9 09bd a381 933c 56f6 803d 942e 51bc
000003b0: 082c 23bd 246d ae3d 25aa 9dba b2ac d23c
000003c0: ed32 b8bd 556d 21bd 4138 38bd 9deb 5c3a
000003d0: b6ef 94bb 54e4 ab3d fc1d 94bd 0cac 8cbd
000003e0: cac9 483d 8abf 7f3d 45c9 443d e54f 58bd
000003f0: 532b acbd 14f2 b9bd cd83 04bd 1ed3 4a3c
-0.06278357 0.011014068 -0.06553515 -0.04211429 0.031484917 0.04482798 -0.01050815 0.052470807
-0.032221906 0.031926643 0.07101242 -0.046538137 -0.030216219 0.0466164 -0.02380254 -0.033179693
0.023850176 0.0048055584 0.06678035 -0.08253624 -0.020971393 0.026428714 0.01805973 -0.08133435
-0.039121863 -0.035795677 0.088863075 0.015095124 -0.06440736 0.06913247 -0.063374996 -0.07728574
0.05535178 0.04604856 -0.02533995 -0.0047167097 0.0016855155 -0.07275378 -0.045739133 0.08109506
-0.050396558 0.025793362 -0.00744309 -0.019607201 -0.06372247 -0.016377699 0.05247477 -0.0181275
0.049504317 -0.04535234 -0.014739791 0.06342019 0.07594474 0.08038763 0.054979913 -0.069371186
-0.06192626 0.008350299 0.012716344 -0.07305288 -0.048362557 -0.029743373 0.07750317 0.034737244
-0.05821379 0.0848795 0.013143085 0.0026566496 0.04400077 -0.054097764 0.05092749 0.048845444
0.0794823 -0.08960268 0.01509244 0.021300055 -0.008579013 0.013636455 -0.078726664 -0.056625355
0.0071247914 0.015047785 0.011481755 -0.0044690357 -0.0032618868 0.021394825 -0.004499813 0.06333211
-0.061670426 -0.00026295916 -0.04158573 0.06616008 0.01538852 0.059228893 0.03906413 0.017764468
-0.033682585 0.0022883455 0.020887958 -0.07585826 0.06607819 -0.06820356 0.013934757 -0.019642573
-0.01772322 -0.012078345 0.035338115 0.08396794 0.06866828 0.06519861 -0.009780724 -0.070712954
-0.024391491 0.012093498 0.07290724 0.0543237 0.028030042 0.08165784 0.0014200625 0.03741527
-0.03583286 0.053005714 -0.07493459 0.099288136 0.0821793 -0.08408792 0.008691831 0.07908861
0.010887559 0.01727788 -0.07567457 0.07112797 -0.05725659 0.016202888 0.08275502 0.023228414
-0.05386761 -0.08162735 0.04461331 -0.10989076 0.076599374 -0.060566675 0.04058005 -0.012234526
0.1494471 -0.075976215 0.037683696 -0.11745806 0.02856915 -0.060496673 0.08710378 0.0741495
-0.06473895 0.027311873 0.042496376 0.05040321 0.0016972407 -0.04807014 0.06584926 -0.059850954
0.007670948 0.14217329 0.013771226 -0.04422607 0.01678621 -0.09012755 -0.11884498 -0.14178953
-0.0020377438 -0.080434084 0.020593168 -0.09882373 0.07744863 -0.029963221 0.054322135 0.063016385
-0.015207381 0.05531683 -0.0019778027 0.081255145 -0.077609845 0.04369773 0.042388614 -0.016078683
-0.018988406 0.05570856 -0.095769435 -0.055259395 0.08310272 0.073089436 -0.07686675 -0.032687068
0.092440285 -0.0666334 0.072572134 -0.06952292 -0.028718658 0.076571986 0.052512325 0.11934415
0.030157827 -0.0003604898 0.052691497 -0.066919446 0.023927102 -0.08598361 0.015344464 0.08539316
-0.060432695 0.030653143 0.0054715015 -0.027973281 0.07816008 0.070834436 -0.062497582 -0.08843032
0.03358996 0.023016518 -0.044076424 0.08263993 0.028426114 0.010553307 -0.044989243 -0.07752752
-0.03515443 -0.048697434 0.036479782 0.00915128 0.049062077 0.050325297 0.078142375 0.038344838
-0.033623956 0.018006152 0.06296985 -0.012767453 -0.039836913 0.08516911 -0.0012028856 0.025717113
-0.08994088 -0.039410908 -0.044975523 0.0008427443 -0.0045451773 0.083931595 -0.072322816 -0.06868753
0.049020566 0.062438525 0.048043508 -0.05281057 -0.08406701 -0.09079376 -0.032352258 0.012379436

fc2.bias f4 [84]
00000000: ef2d 943c 305f a43c 2270 6fbc 8fe7 913c
00000010: fbec 99bc a23e b93c 123a e93c 4eef 173d
00000020: 260d ab3d aff9 1dbd c478 8dbd 30be 8abd
00000030: 44f7 d33d 3a12 8cbd 5259 253c 23a5 a8bd
00000040: 5de7 463c d6b7 433d 9d93 8fbd a9b4 58bd
00000050: b1a4 4f3d f65b dd3d 9f55 633d 6325 afbd
00000060: 0d76 f2bc 123f e6bc 9d4b 67bd 1f44 87bd
00000070: 2e81 093d 20cd fa3c 8953 2cbd ed3b 3e3d
00000080: 701c e83b efa7 103c 7164 233d a361 843d
00000090: 23e2 963d eae1 9ebd 859e dabd ebcf 42bd
000000a0: 3b8b 51bc 32d9 f63c fc01 79bd d8a7 0fbd
000000b0: c572 de3c a337 343d ac89 9bbd dcdb 34bd
000000c0: 9b55 003d a6e4 7f3d 695a 043c 4e9b d2bb
000000d0: 9541 5cbb fa6d 97bd 6c90 f73c 0b70 a63d
000000e0: 2e6b 88bd a505 29bd 4518 56bd fbaf 3cbc
000000f0: e743 943d 4f7a 1c3d 4781 283d 301a 923d
00000100: 62a7 7d3d 8c24 33bd afab 9bbd 482a 0eb8
00000110: 2edc 5abd 9434 963d c056 b53c af2d 4bbd
00000120: 97f5 cc3b 4b89 693d 030a 6fbd d461 a03d
00000130: a480 d23c bba6 e23d 8ed5 dabb cfbb 833c
00000140: f5d7 643d f042 bd3d b299 62ba 73eb 18bd
0.01808831 0.02006492 -0.014614137 0.017810611 -0.018789759 0.022612873 0.028470073 0.037093453
0.08352117 -0.038568195 -0.069078 -0.06774557 0.103498966 -0.06839414 0.010092096 -0.08234622
0.012140122 0.04778274 -0.07010577 -0.052906666 0.05069417 0.10808556 0.055501577 -0.08552053
-0.029597307 -0.028106246 -0.056468595 -0.0660479 0.03357046 0.03061539 -0.042071853 0.04644387
0.007083468 0.008829101 0.03989071 0.06463935 0.07367351 -0.077579334 -0.106747665 -0.047561567
-0.012789543 0.030132864 -0.060792908 -0.035072178 0.027154336 0.04399837 -0.07594618 -0.044154987
0.03133164 0.062473916 0.008078196 -0.006427205 -0.0033608426 -0.07394023 0.030220233 0.08126839
-0.06661068 -0.04126515 -0.05226924 -0.011516566 0.07239514 0.03820258 0.041138913 0.07133901
0.061927207 -0.043736026 -0.076011054 -3.3894816e-05 -0.053432636 0.07334247 0.022136092 -0.049604114
0.0062548625 0.0570157 -0.058359157 0.07831159 0.025696106 0.110669576 -0.0066782897 0.016080765
0.055870015 0.09241283 -0.0008644118 -0.037333917

fc3.weight f4 [10, 84]
00000000: 0a2a 5ebd 9520 b3bd f39f 83bd 2164 b13b
00000010: 4f1f bb3d 7b9c d7bc 55be 7dbe 5a28 44bd
00000020: e242 3b3d 5a04 533d ebee f83c 11f4 053e
00000030: dd1b 8f3d a9e3 733d af8f 933d f2ce 37bc
00000040: 206d 02be 233e e3bd 186e 3d3c dffa 36bb
00000050: f912 f3bd 6492 063d 0e5f acbd 2fd8 35bc
00000060: 4010 e63c b44a ee3c 1f10 ffbd 796d 933d
00000070: 2e98 04be 58cd 98bd 1674 d4bc d8da 4abe
00000080: 4bf5 f6bb 06e4 d1bd e246 16bd 8f86 05be
00000090: 0897 c83d a07d c63c 5c5c 913d 841e 16be
000000a0: 8b47 0abd fe92 27be c8a2 f8bd dee5 99bd
000000b0: a617 6c3d f276 e8bd 8778 c33b e7bf 483c
000000c0: 3685 323c 930a 2ebe 5083 013e 28c1 963e
000000d0: 637b 77bd 4f10 c33d c92d 69bd 8b67 acbd
000000e0: e1b5 1abd 7662 183e 7a8d 85bd ebca 06be
000000f0: 7b0d 0abe ead9 0b3e 9af4 a33d e570 853d
00000100: 8a0c 4ebe 1665 80bd c02f 423c 6a62 863e
00000110: 2216 093e a9f8 97bd f1cc c03d a90d 37bc
00000120: db89 aabc da5f 1c3d 3287 bf3d 89bd e93c
00000130: 3d44 a33c dc93 22bd d4b5 a63b d604 203e
00000140: 336c b4bc 588a cb3d 97b4 35bc a156 39bd
00000150: f293 8a3d 0315 f1bd 0249 2cbd 963b d73c
00000160: 622a 16be 7634 69bd 2a83 7c3d b0a6 2b3d
00000170: 0a72 303d 8e67 25be 4631 af3d ee36 a7bd
00000180: cea1 013e c6fe 0a3c 63d1 b03b 61c3 7a3d
00000190: 1031 27be 185e 8c3d 825c 263d 70a8 59bd
000001a0: b8bf 3bbe 733a 153e 2750 153e 89c7 dd3d
000001b0: f953 bcbc 2bf0 533b c71e b6bc ed0c 643c
000001c0: 7bd5 613b 225e bcbd d4a3 133e 67c2 8f3e
000001d0: efbb abbd c605 813c 13c3 afbd 1d57 423e
000001e0: 9ce0 04bd 19fe d33d 79b8 30be 9570 11bd
000001f0: ba3c 0f3d a008 f83d 498f c43d cca3 bf3d
00000200: ca9e 08be 5be8 05bd b7a3 993d 028c a0bc
00000210: 32d4 47be 22c1 4fbd 08e0 983d 3c25 11be
00000220: 562d ab3d b5b0 8abb f5e8 6ebc 8288 cb3d
00000230: 6863 c0bd 354b 0ebe edac 8dbd 38e0 bc3d
00000240: 2db9 3b3c 4438 58be ec4e 3dbd 7592 c0bd
00000250: 09ea 693e 5c48 703b 35bb 3c3d 1003 f9bd
00000260: ffae 25bd 84a8 52bd 5075 85bd bca7 e03c
00000270: 9b98 903d f0be 4ebd 5f24 5ebe b1fa 1b3e
00000280: 20f5 9fbd a48a 423e 0fe3 b4bd cfeb 25be
00000290: 7dc2 f73a 62a6 263e 378d 50bd 7753 dbbd
000002a0: e36c acbb d396 b53b a342 363d 1729 8fbc
000002b0: b24f 6fbd 73ba 47ba 5c7d a2bc 373c 253b
000002c0: 436e 75bd da3a a9bc a6f1 d93a 4087 5f3c
000002d0: 888f e53d f475 58bd 7672 2c3e 9be2 1d3d
000002e0: aec9 183c 36c3 b3bd 7cf1 b53d c9a1 a93d
000002f0: 1a37 5e3d 94c2 7ebd df68 cf3d 8eb0 d83b
00000300: dffc 253d 6f09 d7bd ffe4 be3c a1ea 613d
00000310: 63a7 23be c20b 54bd 87f9 08be aa9a 563e
00000320: bcd3 c93c 3e27 9c3d 6ba5 ecbd c1e2 0c3e
00000330: 6153 cc3d 56fc bb3d 6d29 b23c dfce 7cbe
00000340: b2d9 b13c 84cc 29bd 6d30 f53d f64a 96bd
00000350: fb39 c3bd 5c69 013e 5a1d e2bc 6bb1 943d
00000360: 0ea0 1abe e4f0 123e 6128 bfbc 6399 a9bd
00000370: c222 37be 8764 45bd 67be d4bc f245 d2bc
00000380: 30ec 543d 5082 f0bd e6ef 37bd b402 613d
00000390: 63c6 fcbd e977 f63d a826 bcbd 9a74 46bd
000003a0: 6471 2b3c 882d c63d a874 d83d 71a3 bebd
000003b0: 4a68 0a3e 1e7e 08be 3a7a 493d 81da 5ebd
000003c0: 5e5f c6bc ed11 363e 5467 3b3e c90b b7bd
000003d0: ce64 95bc 8840 0a3e 09c8 a7bd 9edb 3fbe
000003e0: 7118 983d 380f b73d e25c bc3d 8fd3 943d
000003f0: 899e acbd 6f77 b33b 3906 843d 7058 753c
-0.05423931 -0.08746449 -0.06426992 0.0054135476 0.09136831 -0.026319733 -0.24779637 -0.047890045
0.04571808 0.05151782 0.030387362 0.13081385 0.069877364 0.059543286 0.0720514 -0.011218773
-0.1273694 -0.11095836 0.011561893 -0.0027920527 -0.11868853 0.032854453 -0.08416568 -0.0110989055
0.02808392 0.029088356 -0.12454247 0.071986146 -0.12948677 -0.07461041 -0.02593426 -0.19810045
-0.0075365654 -0.1024857 -0.036688693 -0.13039611 0.09794432 0.024229825 0.07097694 -0.14660078
-0.033759635 -0.16364667 -0.12140423 -0.07514547 0.05763974 -0.11350812 0.0059652957 0.012252784
0.010896018 -0.16996221 0.12647748 0.29444242 -0.060420405 0.09524595 -0.05692843 -0.08418187
-0.03777111 0.1488131 -0.06521125 -0.13163345 -0.13481705 0.13657346 0.080056384 0.065156735
-0.20121971 -0.062692806 0.011852205 0.2624696 0.13387349 -0.07420475 0.094140895 -0.01117269
-0.020817688 0.03817735 0.09351958 0.02853276 0.01993 -0.03969179 0.0050875936 0.15626845
-0.02202425 0.09938496 -0.011090419 -0.04524863 0.067664996 -0.11771586 -0.042061813 0.02627353
-0.14664605 -0.056934796 0.061648525 0.041907012 0.043077506 -0.16152784 0.0855432 -0.08164774
0.1265938 0.008483594 0.0053960546 0.061221484 -0.1632731 0.068538845 0.040615566 -0.05313915
-0.18334854 0.14573078 0.14581357 0.10829074 -0.02298926 0.0032339196 -0.022231473 0.013919097
0.003445952 -0.09197642 0.14417964 0.28078005 -0.08385455 0.015749823 -0.08582129 0.18978544
-0.032440767 0.103512 -0.1725787 -0.035507757 0.034970023 0.1211102 0.09597642 0.09357414
-0.13341823 -0.032692295 0.07501929 -0.01959801 -0.1951454 -0.050721295 0.074646056 -0.1417436
0.083582565 -0.004232491 -0.0145819085 0.09938146 -0.0939396 -0.13895877 -0.069177486 0.09222454
0.011457724 -0.21115214 -0.046217844 -0.094029345 0.22843184 0.0036664223 0.046076972 -0.12158787
-0.040450092 -0.05143024 -0.06516516 0.027423732 0.07060357 -0.05047506 -0.21693562 0.1523235
-0.07810426 0.189982 -0.088323705 -0.16203235 0.0018902567 0.16274408 -0.050915923 -0.10709279
-0.0052620037 0.0055416613 0.044497143 -0.017475648 -0.058425613 -0.00076190307 -0.019835167 0.0025212893
-0.059919607 -0.020657945 0.0016627803 0.013643086 0.11209017 -0.052846864 0.16840538 0.038546186
0.009325428 -0.08777468 0.0888395 0.08282811 0.054251768 -0.062197283 0.101274244 0.006612844
0.04052436 -0.10499846 0.023302553 0.0551554 -0.15981822 -0.051769026 -0.13376437 0.20957437
0.024637096 0.07624672 -0.115549885 0.13758375 0.09976841 0.09178989 0.021748269 -0.2468829
0.02171025 -0.041454807 0.11972127 -0.073385164 -0.09532543 0.12637848 -0.027601887 0.07260402
-0.15100119 0.14349705 -0.023334684 -0.08281209 -0.17884353 -0.048191573 -0.025969697 -0.025668118
0.05198306 -0.11743605 -0.04490652 0.05493422 -0.12342527 0.1203459 -0.091870606 -0.048451044
0.010464046 0.09676653 0.105691254 -0.09308518 0.13516346 -0.1332936 0.04918883 -0.0544076
-0.024215396 0.17780276 0.18301135 -0.08937795 -0.018236544 0.13501179 -0.081924506 -0.18736121
0.07426537 0.089384496 0.091974035 0.07266914 -0.08428676 0.005476884 0.064464994 0.014974698

fc3.bias f4 [10]
00000000: 7430 bbbd 41e4 743e 3081 35bd 8ac6 72bd
00000010: ac4d 8b3d 92c9 5ebd 0a5e beba cbd9 d23d
00000020: d561 b4bd ad8e 403c
-0.09140101 0.23915197 -0.044312656 -0.059271373 0.06801924 -0.05439145 -0.0014523875 0.10295447
-0.088077225 0.011752767
